{"class_name": "Functional", "config": {"name": "model", "layers": [{"class_name": "InputLayer", "config": {"batch_input_shape": [null, 32, 128, 128, 1], "dtype": "float32", "sparse": false, "ragged": false, "name": "input_1"}, "name": "input_1", "inbound_nodes": []}, {"class_name": "SlicingOpLambda", "config": {"name": "tf.__operators__.getitem", "trainable": true, "dtype": "float32", "function": "__operators__.getitem"}, "name": "tf.__operators__.getitem", "inbound_nodes": [["input_1", 0, 0, {"slice_spec": [{"start": null, "stop": null, "step": null}, 0, {"start": null, "stop": null, "step": null}, {"start": null, "stop": null, "step": null}, {"start": null, "stop": null, "step": null}]}]]}, {"class_name": "SlicingOpLambda", "config": {"name": "tf.__operators__.getitem_1", "trainable": true, "dtype": "float32", "function": "__operators__.getitem"}, "name": "tf.__operators__.getitem_1", "inbound_nodes": [["input_1", 0, 0, {"slice_spec": [{"start": null, "stop": null, "step": null}, 1, {"start": null, "stop": null, "step": null}, {"start": null, "stop": null, "step": null}, {"start": null, "stop": null, "step": null}]}]]}, {"class_name": "SlicingOpLambda", "config": {"name": "tf.__operators__.getitem_2", "trainable": true, "dtype": "float32", "function": "__operators__.getitem"}, "name": "tf.__operators__.getitem_2", "inbound_nodes": [["input_1", 0, 0, {"slice_spec": [{"start": null, "stop": null, "step": null}, 2, {"start": null, "stop": null, "step": null}, {"start": null, "stop": null, "step": null}, {"start": null, "stop": null, "step": null}]}]]}, {"class_name": "SlicingOpLambda", "config": {"name": "tf.__operators__.getitem_3", "trainable": true, "dtype": "float32", "function": "__operators__.getitem"}, "name": "tf.__operators__.getitem_3", "inbound_nodes": [["input_1", 0, 0, {"slice_spec": [{"start": null, "stop": null, "step": null}, 3, {"start": null, "stop": null, "step": null}, {"start": null, "stop": null, "step": null}, {"start": null, "stop": null, "step": null}]}]]}, {"class_name": "SlicingOpLambda", "config": {"name": "tf.__operators__.getitem_4", "trainable": true, "dtype": "float32", "function": "__operators__.getitem"}, "name": "tf.__operators__.getitem_4", "inbound_nodes": [["input_1", 0, 0, {"slice_spec": [{"start": null, "stop": null, "step": null}, 4, {"start": null, "stop": null, "step": null}, {"start": null, "stop": null, "step": null}, {"start": null, "stop": null, "step": null}]}]]}, {"class_name": "SlicingOpLambda", "config": {"name": "tf.__operators__.getitem_5", "trainable": true, "dtype": "float32", "function": "__operators__.getitem"}, "name": "tf.__operators__.getitem_5", "inbound_nodes": [["input_1", 0, 0, {"slice_spec": [{"start": null, "stop": null, "step": null}, 5, {"start": null, "stop": null, "step": null}, {"start": null, "stop": null, "step": null}, {"start": null, "stop": null, "step": null}]}]]}, {"class_name": "SlicingOpLambda", "config": {"name": "tf.__operators__.getitem_6", "trainable": true, "dtype": "float32", "function": "__operators__.getitem"}, "name": "tf.__operators__.getitem_6", "inbound_nodes": [["input_1", 0, 0, {"slice_spec": [{"start": null, "stop": null, "step": null}, 6, {"start": null, "stop": null, "step": null}, {"start": null, "stop": null, "step": null}, {"start": null, "stop": null, "step": null}]}]]}, {"class_name": "SlicingOpLambda", "config": {"name": "tf.__operators__.getitem_7", "trainable": true, "dtype": "float32", "function": "__operators__.getitem"}, "name": "tf.__operators__.getitem_7", "inbound_nodes": [["input_1", 0, 0, {"slice_spec": [{"start": null, "stop": null, "step": null}, 7, {"start": null, "stop": null, "step": null}, {"start": null, "stop": null, "step": null}, {"start": null, "stop": null, "step": null}]}]]}, {"class_name": "SlicingOpLambda", "config": {"name": "tf.__operators__.getitem_8", "trainable": true, "dtype": "float32", "function": "__operators__.getitem"}, "name": "tf.__operators__.getitem_8", "inbound_nodes": [["input_1", 0, 0, {"slice_spec": [{"start": null, "stop": null, "step": null}, 8, {"start": null, "stop": null, "step": null}, {"start": null, "stop": null, "step": null}, {"start": null, "stop": null, "step": null}]}]]}, {"class_name": "SlicingOpLambda", "config": {"name": "tf.__operators__.getitem_9", "trainable": true, "dtype": "float32", "function": "__operators__.getitem"}, "name": "tf.__operators__.getitem_9", "inbound_nodes": [["input_1", 0, 0, {"slice_spec": [{"start": null, "stop": null, "step": null}, 9, {"start": null, "stop": null, "step": null}, {"start": null, "stop": null, "step": null}, {"start": null, "stop": null, "step": null}]}]]}, {"class_name": "SlicingOpLambda", "config": {"name": "tf.__operators__.getitem_10", "trainable": true, "dtype": "float32", "function": "__operators__.getitem"}, "name": "tf.__operators__.getitem_10", "inbound_nodes": [["input_1", 0, 0, {"slice_spec": [{"start": null, "stop": null, "step": null}, 10, {"start": null, "stop": null, "step": null}, {"start": null, "stop": null, "step": null}, {"start": null, "stop": null, "step": null}]}]]}, {"class_name": "SlicingOpLambda", "config": {"name": "tf.__operators__.getitem_11", "trainable": true, "dtype": "float32", "function": "__operators__.getitem"}, "name": "tf.__operators__.getitem_11", "inbound_nodes": [["input_1", 0, 0, {"slice_spec": [{"start": null, "stop": null, "step": null}, 11, {"start": null, "stop": null, "step": null}, {"start": null, "stop": null, "step": null}, {"start": null, "stop": null, "step": null}]}]]}, {"class_name": "SlicingOpLambda", "config": {"name": "tf.__operators__.getitem_12", "trainable": true, "dtype": "float32", "function": "__operators__.getitem"}, "name": "tf.__operators__.getitem_12", "inbound_nodes": [["input_1", 0, 0, {"slice_spec": [{"start": null, "stop": null, "step": null}, 12, {"start": null, "stop": null, "step": null}, {"start": null, "stop": null, "step": null}, {"start": null, "stop": null, "step": null}]}]]}, {"class_name": "SlicingOpLambda", "config": {"name": "tf.__operators__.getitem_13", "trainable": true, "dtype": "float32", "function": "__operators__.getitem"}, "name": "tf.__operators__.getitem_13", "inbound_nodes": [["input_1", 0, 0, {"slice_spec": [{"start": null, "stop": null, "step": null}, 13, {"start": null, "stop": null, "step": null}, {"start": null, "stop": null, "step": null}, {"start": null, "stop": null, "step": null}]}]]}, {"class_name": "SlicingOpLambda", "config": {"name": "tf.__operators__.getitem_14", "trainable": true, "dtype": "float32", "function": "__operators__.getitem"}, "name": "tf.__operators__.getitem_14", "inbound_nodes": [["input_1", 0, 0, {"slice_spec": [{"start": null, "stop": null, "step": null}, 14, {"start": null, "stop": null, "step": null}, {"start": null, "stop": null, "step": null}, {"start": null, "stop": null, "step": null}]}]]}, {"class_name": "SlicingOpLambda", "config": {"name": "tf.__operators__.getitem_15", "trainable": true, "dtype": "float32", "function": "__operators__.getitem"}, "name": "tf.__operators__.getitem_15", "inbound_nodes": [["input_1", 0, 0, {"slice_spec": [{"start": null, "stop": null, "step": null}, 15, {"start": null, "stop": null, "step": null}, {"start": null, "stop": null, "step": null}, {"start": null, "stop": null, "step": null}]}]]}, {"class_name": "SlicingOpLambda", "config": {"name": "tf.__operators__.getitem_16", "trainable": true, "dtype": "float32", "function": "__operators__.getitem"}, "name": "tf.__operators__.getitem_16", "inbound_nodes": [["input_1", 0, 0, {"slice_spec": [{"start": null, "stop": null, "step": null}, 16, {"start": null, "stop": null, "step": null}, {"start": null, "stop": null, "step": null}, {"start": null, "stop": null, "step": null}]}]]}, {"class_name": "SlicingOpLambda", "config": {"name": "tf.__operators__.getitem_17", "trainable": true, "dtype": "float32", "function": "__operators__.getitem"}, "name": "tf.__operators__.getitem_17", "inbound_nodes": [["input_1", 0, 0, {"slice_spec": [{"start": null, "stop": null, "step": null}, 17, {"start": null, "stop": null, "step": null}, {"start": null, "stop": null, "step": null}, {"start": null, "stop": null, "step": null}]}]]}, {"class_name": "SlicingOpLambda", "config": {"name": "tf.__operators__.getitem_18", "trainable": true, "dtype": "float32", "function": "__operators__.getitem"}, "name": "tf.__operators__.getitem_18", "inbound_nodes": [["input_1", 0, 0, {"slice_spec": [{"start": null, "stop": null, "step": null}, 18, {"start": null, "stop": null, "step": null}, {"start": null, "stop": null, "step": null}, {"start": null, "stop": null, "step": null}]}]]}, {"class_name": "SlicingOpLambda", "config": {"name": "tf.__operators__.getitem_19", "trainable": true, "dtype": "float32", "function": "__operators__.getitem"}, "name": "tf.__operators__.getitem_19", "inbound_nodes": [["input_1", 0, 0, {"slice_spec": [{"start": null, "stop": null, "step": null}, 19, {"start": null, "stop": null, "step": null}, {"start": null, "stop": null, "step": null}, {"start": null, "stop": null, "step": null}]}]]}, {"class_name": "SlicingOpLambda", "config": {"name": "tf.__operators__.getitem_20", "trainable": true, "dtype": "float32", "function": "__operators__.getitem"}, "name": "tf.__operators__.getitem_20", "inbound_nodes": [["input_1", 0, 0, {"slice_spec": [{"start": null, "stop": null, "step": null}, 20, {"start": null, "stop": null, "step": null}, {"start": null, "stop": null, "step": null}, {"start": null, "stop": null, "step": null}]}]]}, {"class_name": "SlicingOpLambda", "config": {"name": "tf.__operators__.getitem_21", "trainable": true, "dtype": "float32", "function": "__operators__.getitem"}, "name": "tf.__operators__.getitem_21", "inbound_nodes": [["input_1", 0, 0, {"slice_spec": [{"start": null, "stop": null, "step": null}, 21, {"start": null, "stop": null, "step": null}, {"start": null, "stop": null, "step": null}, {"start": null, "stop": null, "step": null}]}]]}, {"class_name": "SlicingOpLambda", "config": {"name": "tf.__operators__.getitem_22", "trainable": true, "dtype": "float32", "function": "__operators__.getitem"}, "name": "tf.__operators__.getitem_22", "inbound_nodes": [["input_1", 0, 0, {"slice_spec": [{"start": null, "stop": null, "step": null}, 22, {"start": null, "stop": null, "step": null}, {"start": null, "stop": null, "step": null}, {"start": null, "stop": null, "step": null}]}]]}, {"class_name": "SlicingOpLambda", "config": {"name": "tf.__operators__.getitem_23", "trainable": true, "dtype": "float32", "function": "__operators__.getitem"}, "name": "tf.__operators__.getitem_23", "inbound_nodes": [["input_1", 0, 0, {"slice_spec": [{"start": null, "stop": null, "step": null}, 23, {"start": null, "stop": null, "step": null}, {"start": null, "stop": null, "step": null}, {"start": null, "stop": null, "step": null}]}]]}, {"class_name": "SlicingOpLambda", "config": {"name": "tf.__operators__.getitem_24", "trainable": true, "dtype": "float32", "function": "__operators__.getitem"}, "name": "tf.__operators__.getitem_24", "inbound_nodes": [["input_1", 0, 0, {"slice_spec": [{"start": null, "stop": null, "step": null}, 24, {"start": null, "stop": null, "step": null}, {"start": null, "stop": null, "step": null}, {"start": null, "stop": null, "step": null}]}]]}, {"class_name": "SlicingOpLambda", "config": {"name": "tf.__operators__.getitem_25", "trainable": true, "dtype": "float32", "function": "__operators__.getitem"}, "name": "tf.__operators__.getitem_25", "inbound_nodes": [["input_1", 0, 0, {"slice_spec": [{"start": null, "stop": null, "step": null}, 25, {"start": null, "stop": null, "step": null}, {"start": null, "stop": null, "step": null}, {"start": null, "stop": null, "step": null}]}]]}, {"class_name": "SlicingOpLambda", "config": {"name": "tf.__operators__.getitem_26", "trainable": true, "dtype": "float32", "function": "__operators__.getitem"}, "name": "tf.__operators__.getitem_26", "inbound_nodes": [["input_1", 0, 0, {"slice_spec": [{"start": null, "stop": null, "step": null}, 26, {"start": null, "stop": null, "step": null}, {"start": null, "stop": null, "step": null}, {"start": null, "stop": null, "step": null}]}]]}, {"class_name": "SlicingOpLambda", "config": {"name": "tf.__operators__.getitem_27", "trainable": true, "dtype": "float32", "function": "__operators__.getitem"}, "name": "tf.__operators__.getitem_27", "inbound_nodes": [["input_1", 0, 0, {"slice_spec": [{"start": null, "stop": null, "step": null}, 27, {"start": null, "stop": null, "step": null}, {"start": null, "stop": null, "step": null}, {"start": null, "stop": null, "step": null}]}]]}, {"class_name": "SlicingOpLambda", "config": {"name": "tf.__operators__.getitem_28", "trainable": true, "dtype": "float32", "function": "__operators__.getitem"}, "name": "tf.__operators__.getitem_28", "inbound_nodes": [["input_1", 0, 0, {"slice_spec": [{"start": null, "stop": null, "step": null}, 28, {"start": null, "stop": null, "step": null}, {"start": null, "stop": null, "step": null}, {"start": null, "stop": null, "step": null}]}]]}, {"class_name": "SlicingOpLambda", "config": {"name": "tf.__operators__.getitem_29", "trainable": true, "dtype": "float32", "function": "__operators__.getitem"}, "name": "tf.__operators__.getitem_29", "inbound_nodes": [["input_1", 0, 0, {"slice_spec": [{"start": null, "stop": null, "step": null}, 29, {"start": null, "stop": null, "step": null}, {"start": null, "stop": null, "step": null}, {"start": null, "stop": null, "step": null}]}]]}, {"class_name": "SlicingOpLambda", "config": {"name": "tf.__operators__.getitem_30", "trainable": true, "dtype": "float32", "function": "__operators__.getitem"}, "name": "tf.__operators__.getitem_30", "inbound_nodes": [["input_1", 0, 0, {"slice_spec": [{"start": null, "stop": null, "step": null}, 30, {"start": null, "stop": null, "step": null}, {"start": null, "stop": null, "step": null}, {"start": null, "stop": null, "step": null}]}]]}, {"class_name": "SlicingOpLambda", "config": {"name": "tf.__operators__.getitem_31", "trainable": true, "dtype": "float32", "function": "__operators__.getitem"}, "name": "tf.__operators__.getitem_31", "inbound_nodes": [["input_1", 0, 0, {"slice_spec": [{"start": null, "stop": null, "step": null}, 31, {"start": null, "stop": null, "step": null}, {"start": null, "stop": null, "step": null}, {"start": null, "stop": null, "step": null}]}]]}, {"class_name": "Conv2D", "config": {"name": "conv2d", "trainable": true, "dtype": "float32", "filters": 4, "kernel_size": [3, 3], "strides": [4, 4], "padding": "same", "data_format": "channels_last", "dilation_rate": [1, 1], "groups": 1, "activation": "relu", "use_bias": true, "kernel_initializer": {"class_name": "GlorotUniform", "config": {"seed": null}}, "bias_initializer": {"class_name": "Zeros", "config": {}}, "kernel_regularizer": null, "bias_regularizer": null, "activity_regularizer": null, "kernel_constraint": null, "bias_constraint": null}, "name": "conv2d", "inbound_nodes": [[["tf.__operators__.getitem", 0, 0, {}]]]}, {"class_name": "Conv2D", "config": {"name": "conv2d_4", "trainable": true, "dtype": "float32", "filters": 4, "kernel_size": [3, 3], "strides": [4, 4], "padding": "same", "data_format": "channels_last", "dilation_rate": [1, 1], "groups": 1, "activation": "relu", "use_bias": true, "kernel_initializer": {"class_name": "GlorotUniform", "config": {"seed": null}}, "bias_initializer": {"class_name": "Zeros", "config": {}}, "kernel_regularizer": null, "bias_regularizer": null, "activity_regularizer": null, "kernel_constraint": null, "bias_constraint": null}, "name": "conv2d_4", "inbound_nodes": [[["tf.__operators__.getitem_1", 0, 0, {}]]]}, {"class_name": "Conv2D", "config": {"name": "conv2d_8", "trainable": true, "dtype": "float32", "filters": 4, "kernel_size": [3, 3], "strides": [4, 4], "padding": "same", "data_format": "channels_last", "dilation_rate": [1, 1], "groups": 1, "activation": "relu", "use_bias": true, "kernel_initializer": {"class_name": "GlorotUniform", "config": {"seed": null}}, "bias_initializer": {"class_name": "Zeros", "config": {}}, "kernel_regularizer": null, "bias_regularizer": null, "activity_regularizer": null, "kernel_constraint": null, "bias_constraint": null}, "name": "conv2d_8", "inbound_nodes": [[["tf.__operators__.getitem_2", 0, 0, {}]]]}, {"class_name": "Conv2D", "config": {"name": "conv2d_12", "trainable": true, "dtype": "float32", "filters": 4, "kernel_size": [3, 3], "strides": [4, 4], "padding": "same", "data_format": "channels_last", "dilation_rate": [1, 1], "groups": 1, "activation": "relu", "use_bias": true, "kernel_initializer": {"class_name": "GlorotUniform", "config": {"seed": null}}, "bias_initializer": {"class_name": "Zeros", "config": {}}, "kernel_regularizer": null, "bias_regularizer": null, "activity_regularizer": null, "kernel_constraint": null, "bias_constraint": null}, "name": "conv2d_12", "inbound_nodes": [[["tf.__operators__.getitem_3", 0, 0, {}]]]}, {"class_name": "Conv2D", "config": {"name": "conv2d_16", "trainable": true, "dtype": "float32", "filters": 4, "kernel_size": [3, 3], "strides": [4, 4], "padding": "same", "data_format": "channels_last", "dilation_rate": [1, 1], "groups": 1, "activation": "relu", "use_bias": true, "kernel_initializer": {"class_name": "GlorotUniform", "config": {"seed": null}}, "bias_initializer": {"class_name": "Zeros", "config": {}}, "kernel_regularizer": null, "bias_regularizer": null, "activity_regularizer": null, "kernel_constraint": null, "bias_constraint": null}, "name": "conv2d_16", "inbound_nodes": [[["tf.__operators__.getitem_4", 0, 0, {}]]]}, {"class_name": "Conv2D", "config": {"name": "conv2d_20", "trainable": true, "dtype": "float32", "filters": 4, "kernel_size": [3, 3], "strides": [4, 4], "padding": "same", "data_format": "channels_last", "dilation_rate": [1, 1], "groups": 1, "activation": "relu", "use_bias": true, "kernel_initializer": {"class_name": "GlorotUniform", "config": {"seed": null}}, "bias_initializer": {"class_name": "Zeros", "config": {}}, "kernel_regularizer": null, "bias_regularizer": null, "activity_regularizer": null, "kernel_constraint": null, "bias_constraint": null}, "name": "conv2d_20", "inbound_nodes": [[["tf.__operators__.getitem_5", 0, 0, {}]]]}, {"class_name": "Conv2D", "config": {"name": "conv2d_24", "trainable": true, "dtype": "float32", "filters": 4, "kernel_size": [3, 3], "strides": [4, 4], "padding": "same", "data_format": "channels_last", "dilation_rate": [1, 1], "groups": 1, "activation": "relu", "use_bias": true, "kernel_initializer": {"class_name": "GlorotUniform", "config": {"seed": null}}, "bias_initializer": {"class_name": "Zeros", "config": {}}, "kernel_regularizer": null, "bias_regularizer": null, "activity_regularizer": null, "kernel_constraint": null, "bias_constraint": null}, "name": "conv2d_24", "inbound_nodes": [[["tf.__operators__.getitem_6", 0, 0, {}]]]}, {"class_name": "Conv2D", "config": {"name": "conv2d_28", "trainable": true, "dtype": "float32", "filters": 4, "kernel_size": [3, 3], "strides": [4, 4], "padding": "same", "data_format": "channels_last", "dilation_rate": [1, 1], "groups": 1, "activation": "relu", "use_bias": true, "kernel_initializer": {"class_name": "GlorotUniform", "config": {"seed": null}}, "bias_initializer": {"class_name": "Zeros", "config": {}}, "kernel_regularizer": null, "bias_regularizer": null, "activity_regularizer": null, "kernel_constraint": null, "bias_constraint": null}, "name": "conv2d_28", "inbound_nodes": [[["tf.__operators__.getitem_7", 0, 0, {}]]]}, {"class_name": "Conv2D", "config": {"name": "conv2d_32", "trainable": true, "dtype": "float32", "filters": 4, "kernel_size": [3, 3], "strides": [4, 4], "padding": "same", "data_format": "channels_last", "dilation_rate": [1, 1], "groups": 1, "activation": "relu", "use_bias": true, "kernel_initializer": {"class_name": "GlorotUniform", "config": {"seed": null}}, "bias_initializer": {"class_name": "Zeros", "config": {}}, "kernel_regularizer": null, "bias_regularizer": null, "activity_regularizer": null, "kernel_constraint": null, "bias_constraint": null}, "name": "conv2d_32", "inbound_nodes": [[["tf.__operators__.getitem_8", 0, 0, {}]]]}, {"class_name": "Conv2D", "config": {"name": "conv2d_36", "trainable": true, "dtype": "float32", "filters": 4, "kernel_size": [3, 3], "strides": [4, 4], "padding": "same", "data_format": "channels_last", "dilation_rate": [1, 1], "groups": 1, "activation": "relu", "use_bias": true, "kernel_initializer": {"class_name": "GlorotUniform", "config": {"seed": null}}, "bias_initializer": {"class_name": "Zeros", "config": {}}, "kernel_regularizer": null, "bias_regularizer": null, "activity_regularizer": null, "kernel_constraint": null, "bias_constraint": null}, "name": "conv2d_36", "inbound_nodes": [[["tf.__operators__.getitem_9", 0, 0, {}]]]}, {"class_name": "Conv2D", "config": {"name": "conv2d_40", "trainable": true, "dtype": "float32", "filters": 4, "kernel_size": [3, 3], "strides": [4, 4], "padding": "same", "data_format": "channels_last", "dilation_rate": [1, 1], "groups": 1, "activation": "relu", "use_bias": true, "kernel_initializer": {"class_name": "GlorotUniform", "config": {"seed": null}}, "bias_initializer": {"class_name": "Zeros", "config": {}}, "kernel_regularizer": null, "bias_regularizer": null, "activity_regularizer": null, "kernel_constraint": null, "bias_constraint": null}, "name": "conv2d_40", "inbound_nodes": [[["tf.__operators__.getitem_10", 0, 0, {}]]]}, {"class_name": "Conv2D", "config": {"name": "conv2d_44", "trainable": true, "dtype": "float32", "filters": 4, "kernel_size": [3, 3], "strides": [4, 4], "padding": "same", "data_format": "channels_last", "dilation_rate": [1, 1], "groups": 1, "activation": "relu", "use_bias": true, "kernel_initializer": {"class_name": "GlorotUniform", "config": {"seed": null}}, "bias_initializer": {"class_name": "Zeros", "config": {}}, "kernel_regularizer": null, "bias_regularizer": null, "activity_regularizer": null, "kernel_constraint": null, "bias_constraint": null}, "name": "conv2d_44", "inbound_nodes": [[["tf.__operators__.getitem_11", 0, 0, {}]]]}, {"class_name": "Conv2D", "config": {"name": "conv2d_48", "trainable": true, "dtype": "float32", "filters": 4, "kernel_size": [3, 3], "strides": [4, 4], "padding": "same", "data_format": "channels_last", "dilation_rate": [1, 1], "groups": 1, "activation": "relu", "use_bias": true, "kernel_initializer": {"class_name": "GlorotUniform", "config": {"seed": null}}, "bias_initializer": {"class_name": "Zeros", "config": {}}, "kernel_regularizer": null, "bias_regularizer": null, "activity_regularizer": null, "kernel_constraint": null, "bias_constraint": null}, "name": "conv2d_48", "inbound_nodes": [[["tf.__operators__.getitem_12", 0, 0, {}]]]}, {"class_name": "Conv2D", "config": {"name": "conv2d_52", "trainable": true, "dtype": "float32", "filters": 4, "kernel_size": [3, 3], "strides": [4, 4], "padding": "same", "data_format": "channels_last", "dilation_rate": [1, 1], "groups": 1, "activation": "relu", "use_bias": true, "kernel_initializer": {"class_name": "GlorotUniform", "config": {"seed": null}}, "bias_initializer": {"class_name": "Zeros", "config": {}}, "kernel_regularizer": null, "bias_regularizer": null, "activity_regularizer": null, "kernel_constraint": null, "bias_constraint": null}, "name": "conv2d_52", "inbound_nodes": [[["tf.__operators__.getitem_13", 0, 0, {}]]]}, {"class_name": "Conv2D", "config": {"name": "conv2d_56", "trainable": true, "dtype": "float32", "filters": 4, "kernel_size": [3, 3], "strides": [4, 4], "padding": "same", "data_format": "channels_last", "dilation_rate": [1, 1], "groups": 1, "activation": "relu", "use_bias": true, "kernel_initializer": {"class_name": "GlorotUniform", "config": {"seed": null}}, "bias_initializer": {"class_name": "Zeros", "config": {}}, "kernel_regularizer": null, "bias_regularizer": null, "activity_regularizer": null, "kernel_constraint": null, "bias_constraint": null}, "name": "conv2d_56", "inbound_nodes": [[["tf.__operators__.getitem_14", 0, 0, {}]]]}, {"class_name": "Conv2D", "config": {"name": "conv2d_60", "trainable": true, "dtype": "float32", "filters": 4, "kernel_size": [3, 3], "strides": [4, 4], "padding": "same", "data_format": "channels_last", "dilation_rate": [1, 1], "groups": 1, "activation": "relu", "use_bias": true, "kernel_initializer": {"class_name": "GlorotUniform", "config": {"seed": null}}, "bias_initializer": {"class_name": "Zeros", "config": {}}, "kernel_regularizer": null, "bias_regularizer": null, "activity_regularizer": null, "kernel_constraint": null, "bias_constraint": null}, "name": "conv2d_60", "inbound_nodes": [[["tf.__operators__.getitem_15", 0, 0, {}]]]}, {"class_name": "Conv2D", "config": {"name": "conv2d_64", "trainable": true, "dtype": "float32", "filters": 4, "kernel_size": [3, 3], "strides": [4, 4], "padding": "same", "data_format": "channels_last", "dilation_rate": [1, 1], "groups": 1, "activation": "relu", "use_bias": true, "kernel_initializer": {"class_name": "GlorotUniform", "config": {"seed": null}}, "bias_initializer": {"class_name": "Zeros", "config": {}}, "kernel_regularizer": null, "bias_regularizer": null, "activity_regularizer": null, "kernel_constraint": null, "bias_constraint": null}, "name": "conv2d_64", "inbound_nodes": [[["tf.__operators__.getitem_16", 0, 0, {}]]]}, {"class_name": "Conv2D", "config": {"name": "conv2d_68", "trainable": true, "dtype": "float32", "filters": 4, "kernel_size": [3, 3], "strides": [4, 4], "padding": "same", "data_format": "channels_last", "dilation_rate": [1, 1], "groups": 1, "activation": "relu", "use_bias": true, "kernel_initializer": {"class_name": "GlorotUniform", "config": {"seed": null}}, "bias_initializer": {"class_name": "Zeros", "config": {}}, "kernel_regularizer": null, "bias_regularizer": null, "activity_regularizer": null, "kernel_constraint": null, "bias_constraint": null}, "name": "conv2d_68", "inbound_nodes": [[["tf.__operators__.getitem_17", 0, 0, {}]]]}, {"class_name": "Conv2D", "config": {"name": "conv2d_72", "trainable": true, "dtype": "float32", "filters": 4, "kernel_size": [3, 3], "strides": [4, 4], "padding": "same", "data_format": "channels_last", "dilation_rate": [1, 1], "groups": 1, "activation": "relu", "use_bias": true, "kernel_initializer": {"class_name": "GlorotUniform", "config": {"seed": null}}, "bias_initializer": {"class_name": "Zeros", "config": {}}, "kernel_regularizer": null, "bias_regularizer": null, "activity_regularizer": null, "kernel_constraint": null, "bias_constraint": null}, "name": "conv2d_72", "inbound_nodes": [[["tf.__operators__.getitem_18", 0, 0, {}]]]}, {"class_name": "Conv2D", "config": {"name": "conv2d_76", "trainable": true, "dtype": "float32", "filters": 4, "kernel_size": [3, 3], "strides": [4, 4], "padding": "same", "data_format": "channels_last", "dilation_rate": [1, 1], "groups": 1, "activation": "relu", "use_bias": true, "kernel_initializer": {"class_name": "GlorotUniform", "config": {"seed": null}}, "bias_initializer": {"class_name": "Zeros", "config": {}}, "kernel_regularizer": null, "bias_regularizer": null, "activity_regularizer": null, "kernel_constraint": null, "bias_constraint": null}, "name": "conv2d_76", "inbound_nodes": [[["tf.__operators__.getitem_19", 0, 0, {}]]]}, {"class_name": "Conv2D", "config": {"name": "conv2d_80", "trainable": true, "dtype": "float32", "filters": 4, "kernel_size": [3, 3], "strides": [4, 4], "padding": "same", "data_format": "channels_last", "dilation_rate": [1, 1], "groups": 1, "activation": "relu", "use_bias": true, "kernel_initializer": {"class_name": "GlorotUniform", "config": {"seed": null}}, "bias_initializer": {"class_name": "Zeros", "config": {}}, "kernel_regularizer": null, "bias_regularizer": null, "activity_regularizer": null, "kernel_constraint": null, "bias_constraint": null}, "name": "conv2d_80", "inbound_nodes": [[["tf.__operators__.getitem_20", 0, 0, {}]]]}, {"class_name": "Conv2D", "config": {"name": "conv2d_84", "trainable": true, "dtype": "float32", "filters": 4, "kernel_size": [3, 3], "strides": [4, 4], "padding": "same", "data_format": "channels_last", "dilation_rate": [1, 1], "groups": 1, "activation": "relu", "use_bias": true, "kernel_initializer": {"class_name": "GlorotUniform", "config": {"seed": null}}, "bias_initializer": {"class_name": "Zeros", "config": {}}, "kernel_regularizer": null, "bias_regularizer": null, "activity_regularizer": null, "kernel_constraint": null, "bias_constraint": null}, "name": "conv2d_84", "inbound_nodes": [[["tf.__operators__.getitem_21", 0, 0, {}]]]}, {"class_name": "Conv2D", "config": {"name": "conv2d_88", "trainable": true, "dtype": "float32", "filters": 4, "kernel_size": [3, 3], "strides": [4, 4], "padding": "same", "data_format": "channels_last", "dilation_rate": [1, 1], "groups": 1, "activation": "relu", "use_bias": true, "kernel_initializer": {"class_name": "GlorotUniform", "config": {"seed": null}}, "bias_initializer": {"class_name": "Zeros", "config": {}}, "kernel_regularizer": null, "bias_regularizer": null, "activity_regularizer": null, "kernel_constraint": null, "bias_constraint": null}, "name": "conv2d_88", "inbound_nodes": [[["tf.__operators__.getitem_22", 0, 0, {}]]]}, {"class_name": "Conv2D", "config": {"name": "conv2d_92", "trainable": true, "dtype": "float32", "filters": 4, "kernel_size": [3, 3], "strides": [4, 4], "padding": "same", "data_format": "channels_last", "dilation_rate": [1, 1], "groups": 1, "activation": "relu", "use_bias": true, "kernel_initializer": {"class_name": "GlorotUniform", "config": {"seed": null}}, "bias_initializer": {"class_name": "Zeros", "config": {}}, "kernel_regularizer": null, "bias_regularizer": null, "activity_regularizer": null, "kernel_constraint": null, "bias_constraint": null}, "name": "conv2d_92", "inbound_nodes": [[["tf.__operators__.getitem_23", 0, 0, {}]]]}, {"class_name": "Conv2D", "config": {"name": "conv2d_96", "trainable": true, "dtype": "float32", "filters": 4, "kernel_size": [3, 3], "strides": [4, 4], "padding": "same", "data_format": "channels_last", "dilation_rate": [1, 1], "groups": 1, "activation": "relu", "use_bias": true, "kernel_initializer": {"class_name": "GlorotUniform", "config": {"seed": null}}, "bias_initializer": {"class_name": "Zeros", "config": {}}, "kernel_regularizer": null, "bias_regularizer": null, "activity_regularizer": null, "kernel_constraint": null, "bias_constraint": null}, "name": "conv2d_96", "inbound_nodes": [[["tf.__operators__.getitem_24", 0, 0, {}]]]}, {"class_name": "Conv2D", "config": {"name": "conv2d_100", "trainable": true, "dtype": "float32", "filters": 4, "kernel_size": [3, 3], "strides": [4, 4], "padding": "same", "data_format": "channels_last", "dilation_rate": [1, 1], "groups": 1, "activation": "relu", "use_bias": true, "kernel_initializer": {"class_name": "GlorotUniform", "config": {"seed": null}}, "bias_initializer": {"class_name": "Zeros", "config": {}}, "kernel_regularizer": null, "bias_regularizer": null, "activity_regularizer": null, "kernel_constraint": null, "bias_constraint": null}, "name": "conv2d_100", "inbound_nodes": [[["tf.__operators__.getitem_25", 0, 0, {}]]]}, {"class_name": "Conv2D", "config": {"name": "conv2d_104", "trainable": true, "dtype": "float32", "filters": 4, "kernel_size": [3, 3], "strides": [4, 4], "padding": "same", "data_format": "channels_last", "dilation_rate": [1, 1], "groups": 1, "activation": "relu", "use_bias": true, "kernel_initializer": {"class_name": "GlorotUniform", "config": {"seed": null}}, "bias_initializer": {"class_name": "Zeros", "config": {}}, "kernel_regularizer": null, "bias_regularizer": null, "activity_regularizer": null, "kernel_constraint": null, "bias_constraint": null}, "name": "conv2d_104", "inbound_nodes": [[["tf.__operators__.getitem_26", 0, 0, {}]]]}, {"class_name": "Conv2D", "config": {"name": "conv2d_108", "trainable": true, "dtype": "float32", "filters": 4, "kernel_size": [3, 3], "strides": [4, 4], "padding": "same", "data_format": "channels_last", "dilation_rate": [1, 1], "groups": 1, "activation": "relu", "use_bias": true, "kernel_initializer": {"class_name": "GlorotUniform", "config": {"seed": null}}, "bias_initializer": {"class_name": "Zeros", "config": {}}, "kernel_regularizer": null, "bias_regularizer": null, "activity_regularizer": null, "kernel_constraint": null, "bias_constraint": null}, "name": "conv2d_108", "inbound_nodes": [[["tf.__operators__.getitem_27", 0, 0, {}]]]}, {"class_name": "Conv2D", "config": {"name": "conv2d_112", "trainable": true, "dtype": "float32", "filters": 4, "kernel_size": [3, 3], "strides": [4, 4], "padding": "same", "data_format": "channels_last", "dilation_rate": [1, 1], "groups": 1, "activation": "relu", "use_bias": true, "kernel_initializer": {"class_name": "GlorotUniform", "config": {"seed": null}}, "bias_initializer": {"class_name": "Zeros", "config": {}}, "kernel_regularizer": null, "bias_regularizer": null, "activity_regularizer": null, "kernel_constraint": null, "bias_constraint": null}, "name": "conv2d_112", "inbound_nodes": [[["tf.__operators__.getitem_28", 0, 0, {}]]]}, {"class_name": "Conv2D", "config": {"name": "conv2d_116", "trainable": true, "dtype": "float32", "filters": 4, "kernel_size": [3, 3], "strides": [4, 4], "padding": "same", "data_format": "channels_last", "dilation_rate": [1, 1], "groups": 1, "activation": "relu", "use_bias": true, "kernel_initializer": {"class_name": "GlorotUniform", "config": {"seed": null}}, "bias_initializer": {"class_name": "Zeros", "config": {}}, "kernel_regularizer": null, "bias_regularizer": null, "activity_regularizer": null, "kernel_constraint": null, "bias_constraint": null}, "name": "conv2d_116", "inbound_nodes": [[["tf.__operators__.getitem_29", 0, 0, {}]]]}, {"class_name": "Conv2D", "config": {"name": "conv2d_120", "trainable": true, "dtype": "float32", "filters": 4, "kernel_size": [3, 3], "strides": [4, 4], "padding": "same", "data_format": "channels_last", "dilation_rate": [1, 1], "groups": 1, "activation": "relu", "use_bias": true, "kernel_initializer": {"class_name": "GlorotUniform", "config": {"seed": null}}, "bias_initializer": {"class_name": "Zeros", "config": {}}, "kernel_regularizer": null, "bias_regularizer": null, "activity_regularizer": null, "kernel_constraint": null, "bias_constraint": null}, "name": "conv2d_120", "inbound_nodes": [[["tf.__operators__.getitem_30", 0, 0, {}]]]}, {"class_name": "Conv2D", "config": {"name": "conv2d_124", "trainable": true, "dtype": "float32", "filters": 4, "kernel_size": [3, 3], "strides": [4, 4], "padding": "same", "data_format": "channels_last", "dilation_rate": [1, 1], "groups": 1, "activation": "relu", "use_bias": true, "kernel_initializer": {"class_name": "GlorotUniform", "config": {"seed": null}}, "bias_initializer": {"class_name": "Zeros", "config": {}}, "kernel_regularizer": null, "bias_regularizer": null, "activity_regularizer": null, "kernel_constraint": null, "bias_constraint": null}, "name": "conv2d_124", "inbound_nodes": [[["tf.__operators__.getitem_31", 0, 0, {}]]]}, {"class_name": "Conv2D", "config": {"name": "conv2d_1", "trainable": true, "dtype": "float32", "filters": 16, "kernel_size": [3, 3], "strides": [4, 4], "padding": "same", "data_format": "channels_last", "dilation_rate": [1, 1], "groups": 1, "activation": "relu", "use_bias": true, "kernel_initializer": {"class_name": "GlorotUniform", "config": {"seed": null}}, "bias_initializer": {"class_name": "Zeros", "config": {}}, "kernel_regularizer": null, "bias_regularizer": null, "activity_regularizer": null, "kernel_constraint": null, "bias_constraint": null}, "name": "conv2d_1", "inbound_nodes": [[["conv2d", 0, 0, {}]]]}, {"class_name": "Conv2D", "config": {"name": "conv2d_5", "trainable": true, "dtype": "float32", "filters": 16, "kernel_size": [3, 3], "strides": [4, 4], "padding": "same", "data_format": "channels_last", "dilation_rate": [1, 1], "groups": 1, "activation": "relu", "use_bias": true, "kernel_initializer": {"class_name": "GlorotUniform", "config": {"seed": null}}, "bias_initializer": {"class_name": "Zeros", "config": {}}, "kernel_regularizer": null, "bias_regularizer": null, "activity_regularizer": null, "kernel_constraint": null, "bias_constraint": null}, "name": "conv2d_5", "inbound_nodes": [[["conv2d_4", 0, 0, {}]]]}, {"class_name": "Conv2D", "config": {"name": "conv2d_9", "trainable": true, "dtype": "float32", "filters": 16, "kernel_size": [3, 3], "strides": [4, 4], "padding": "same", "data_format": "channels_last", "dilation_rate": [1, 1], "groups": 1, "activation": "relu", "use_bias": true, "kernel_initializer": {"class_name": "GlorotUniform", "config": {"seed": null}}, "bias_initializer": {"class_name": "Zeros", "config": {}}, "kernel_regularizer": null, "bias_regularizer": null, "activity_regularizer": null, "kernel_constraint": null, "bias_constraint": null}, "name": "conv2d_9", "inbound_nodes": [[["conv2d_8", 0, 0, {}]]]}, {"class_name": "Conv2D", "config": {"name": "conv2d_13", "trainable": true, "dtype": "float32", "filters": 16, "kernel_size": [3, 3], "strides": [4, 4], "padding": "same", "data_format": "channels_last", "dilation_rate": [1, 1], "groups": 1, "activation": "relu", "use_bias": true, "kernel_initializer": {"class_name": "GlorotUniform", "config": {"seed": null}}, "bias_initializer": {"class_name": "Zeros", "config": {}}, "kernel_regularizer": null, "bias_regularizer": null, "activity_regularizer": null, "kernel_constraint": null, "bias_constraint": null}, "name": "conv2d_13", "inbound_nodes": [[["conv2d_12", 0, 0, {}]]]}, {"class_name": "Conv2D", "config": {"name": "conv2d_17", "trainable": true, "dtype": "float32", "filters": 16, "kernel_size": [3, 3], "strides": [4, 4], "padding": "same", "data_format": "channels_last", "dilation_rate": [1, 1], "groups": 1, "activation": "relu", "use_bias": true, "kernel_initializer": {"class_name": "GlorotUniform", "config": {"seed": null}}, "bias_initializer": {"class_name": "Zeros", "config": {}}, "kernel_regularizer": null, "bias_regularizer": null, "activity_regularizer": null, "kernel_constraint": null, "bias_constraint": null}, "name": "conv2d_17", "inbound_nodes": [[["conv2d_16", 0, 0, {}]]]}, {"class_name": "Conv2D", "config": {"name": "conv2d_21", "trainable": true, "dtype": "float32", "filters": 16, "kernel_size": [3, 3], "strides": [4, 4], "padding": "same", "data_format": "channels_last", "dilation_rate": [1, 1], "groups": 1, "activation": "relu", "use_bias": true, "kernel_initializer": {"class_name": "GlorotUniform", "config": {"seed": null}}, "bias_initializer": {"class_name": "Zeros", "config": {}}, "kernel_regularizer": null, "bias_regularizer": null, "activity_regularizer": null, "kernel_constraint": null, "bias_constraint": null}, "name": "conv2d_21", "inbound_nodes": [[["conv2d_20", 0, 0, {}]]]}, {"class_name": "Conv2D", "config": {"name": "conv2d_25", "trainable": true, "dtype": "float32", "filters": 16, "kernel_size": [3, 3], "strides": [4, 4], "padding": "same", "data_format": "channels_last", "dilation_rate": [1, 1], "groups": 1, "activation": "relu", "use_bias": true, "kernel_initializer": {"class_name": "GlorotUniform", "config": {"seed": null}}, "bias_initializer": {"class_name": "Zeros", "config": {}}, "kernel_regularizer": null, "bias_regularizer": null, "activity_regularizer": null, "kernel_constraint": null, "bias_constraint": null}, "name": "conv2d_25", "inbound_nodes": [[["conv2d_24", 0, 0, {}]]]}, {"class_name": "Conv2D", "config": {"name": "conv2d_29", "trainable": true, "dtype": "float32", "filters": 16, "kernel_size": [3, 3], "strides": [4, 4], "padding": "same", "data_format": "channels_last", "dilation_rate": [1, 1], "groups": 1, "activation": "relu", "use_bias": true, "kernel_initializer": {"class_name": "GlorotUniform", "config": {"seed": null}}, "bias_initializer": {"class_name": "Zeros", "config": {}}, "kernel_regularizer": null, "bias_regularizer": null, "activity_regularizer": null, "kernel_constraint": null, "bias_constraint": null}, "name": "conv2d_29", "inbound_nodes": [[["conv2d_28", 0, 0, {}]]]}, {"class_name": "Conv2D", "config": {"name": "conv2d_33", "trainable": true, "dtype": "float32", "filters": 16, "kernel_size": [3, 3], "strides": [4, 4], "padding": "same", "data_format": "channels_last", "dilation_rate": [1, 1], "groups": 1, "activation": "relu", "use_bias": true, "kernel_initializer": {"class_name": "GlorotUniform", "config": {"seed": null}}, "bias_initializer": {"class_name": "Zeros", "config": {}}, "kernel_regularizer": null, "bias_regularizer": null, "activity_regularizer": null, "kernel_constraint": null, "bias_constraint": null}, "name": "conv2d_33", "inbound_nodes": [[["conv2d_32", 0, 0, {}]]]}, {"class_name": "Conv2D", "config": {"name": "conv2d_37", "trainable": true, "dtype": "float32", "filters": 16, "kernel_size": [3, 3], "strides": [4, 4], "padding": "same", "data_format": "channels_last", "dilation_rate": [1, 1], "groups": 1, "activation": "relu", "use_bias": true, "kernel_initializer": {"class_name": "GlorotUniform", "config": {"seed": null}}, "bias_initializer": {"class_name": "Zeros", "config": {}}, "kernel_regularizer": null, "bias_regularizer": null, "activity_regularizer": null, "kernel_constraint": null, "bias_constraint": null}, "name": "conv2d_37", "inbound_nodes": [[["conv2d_36", 0, 0, {}]]]}, {"class_name": "Conv2D", "config": {"name": "conv2d_41", "trainable": true, "dtype": "float32", "filters": 16, "kernel_size": [3, 3], "strides": [4, 4], "padding": "same", "data_format": "channels_last", "dilation_rate": [1, 1], "groups": 1, "activation": "relu", "use_bias": true, "kernel_initializer": {"class_name": "GlorotUniform", "config": {"seed": null}}, "bias_initializer": {"class_name": "Zeros", "config": {}}, "kernel_regularizer": null, "bias_regularizer": null, "activity_regularizer": null, "kernel_constraint": null, "bias_constraint": null}, "name": "conv2d_41", "inbound_nodes": [[["conv2d_40", 0, 0, {}]]]}, {"class_name": "Conv2D", "config": {"name": "conv2d_45", "trainable": true, "dtype": "float32", "filters": 16, "kernel_size": [3, 3], "strides": [4, 4], "padding": "same", "data_format": "channels_last", "dilation_rate": [1, 1], "groups": 1, "activation": "relu", "use_bias": true, "kernel_initializer": {"class_name": "GlorotUniform", "config": {"seed": null}}, "bias_initializer": {"class_name": "Zeros", "config": {}}, "kernel_regularizer": null, "bias_regularizer": null, "activity_regularizer": null, "kernel_constraint": null, "bias_constraint": null}, "name": "conv2d_45", "inbound_nodes": [[["conv2d_44", 0, 0, {}]]]}, {"class_name": "Conv2D", "config": {"name": "conv2d_49", "trainable": true, "dtype": "float32", "filters": 16, "kernel_size": [3, 3], "strides": [4, 4], "padding": "same", "data_format": "channels_last", "dilation_rate": [1, 1], "groups": 1, "activation": "relu", "use_bias": true, "kernel_initializer": {"class_name": "GlorotUniform", "config": {"seed": null}}, "bias_initializer": {"class_name": "Zeros", "config": {}}, "kernel_regularizer": null, "bias_regularizer": null, "activity_regularizer": null, "kernel_constraint": null, "bias_constraint": null}, "name": "conv2d_49", "inbound_nodes": [[["conv2d_48", 0, 0, {}]]]}, {"class_name": "Conv2D", "config": {"name": "conv2d_53", "trainable": true, "dtype": "float32", "filters": 16, "kernel_size": [3, 3], "strides": [4, 4], "padding": "same", "data_format": "channels_last", "dilation_rate": [1, 1], "groups": 1, "activation": "relu", "use_bias": true, "kernel_initializer": {"class_name": "GlorotUniform", "config": {"seed": null}}, "bias_initializer": {"class_name": "Zeros", "config": {}}, "kernel_regularizer": null, "bias_regularizer": null, "activity_regularizer": null, "kernel_constraint": null, "bias_constraint": null}, "name": "conv2d_53", "inbound_nodes": [[["conv2d_52", 0, 0, {}]]]}, {"class_name": "Conv2D", "config": {"name": "conv2d_57", "trainable": true, "dtype": "float32", "filters": 16, "kernel_size": [3, 3], "strides": [4, 4], "padding": "same", "data_format": "channels_last", "dilation_rate": [1, 1], "groups": 1, "activation": "relu", "use_bias": true, "kernel_initializer": {"class_name": "GlorotUniform", "config": {"seed": null}}, "bias_initializer": {"class_name": "Zeros", "config": {}}, "kernel_regularizer": null, "bias_regularizer": null, "activity_regularizer": null, "kernel_constraint": null, "bias_constraint": null}, "name": "conv2d_57", "inbound_nodes": [[["conv2d_56", 0, 0, {}]]]}, {"class_name": "Conv2D", "config": {"name": "conv2d_61", "trainable": true, "dtype": "float32", "filters": 16, "kernel_size": [3, 3], "strides": [4, 4], "padding": "same", "data_format": "channels_last", "dilation_rate": [1, 1], "groups": 1, "activation": "relu", "use_bias": true, "kernel_initializer": {"class_name": "GlorotUniform", "config": {"seed": null}}, "bias_initializer": {"class_name": "Zeros", "config": {}}, "kernel_regularizer": null, "bias_regularizer": null, "activity_regularizer": null, "kernel_constraint": null, "bias_constraint": null}, "name": "conv2d_61", "inbound_nodes": [[["conv2d_60", 0, 0, {}]]]}, {"class_name": "Conv2D", "config": {"name": "conv2d_65", "trainable": true, "dtype": "float32", "filters": 16, "kernel_size": [3, 3], "strides": [4, 4], "padding": "same", "data_format": "channels_last", "dilation_rate": [1, 1], "groups": 1, "activation": "relu", "use_bias": true, "kernel_initializer": {"class_name": "GlorotUniform", "config": {"seed": null}}, "bias_initializer": {"class_name": "Zeros", "config": {}}, "kernel_regularizer": null, "bias_regularizer": null, "activity_regularizer": null, "kernel_constraint": null, "bias_constraint": null}, "name": "conv2d_65", "inbound_nodes": [[["conv2d_64", 0, 0, {}]]]}, {"class_name": "Conv2D", "config": {"name": "conv2d_69", "trainable": true, "dtype": "float32", "filters": 16, "kernel_size": [3, 3], "strides": [4, 4], "padding": "same", "data_format": "channels_last", "dilation_rate": [1, 1], "groups": 1, "activation": "relu", "use_bias": true, "kernel_initializer": {"class_name": "GlorotUniform", "config": {"seed": null}}, "bias_initializer": {"class_name": "Zeros", "config": {}}, "kernel_regularizer": null, "bias_regularizer": null, "activity_regularizer": null, "kernel_constraint": null, "bias_constraint": null}, "name": "conv2d_69", "inbound_nodes": [[["conv2d_68", 0, 0, {}]]]}, {"class_name": "Conv2D", "config": {"name": "conv2d_73", "trainable": true, "dtype": "float32", "filters": 16, "kernel_size": [3, 3], "strides": [4, 4], "padding": "same", "data_format": "channels_last", "dilation_rate": [1, 1], "groups": 1, "activation": "relu", "use_bias": true, "kernel_initializer": {"class_name": "GlorotUniform", "config": {"seed": null}}, "bias_initializer": {"class_name": "Zeros", "config": {}}, "kernel_regularizer": null, "bias_regularizer": null, "activity_regularizer": null, "kernel_constraint": null, "bias_constraint": null}, "name": "conv2d_73", "inbound_nodes": [[["conv2d_72", 0, 0, {}]]]}, {"class_name": "Conv2D", "config": {"name": "conv2d_77", "trainable": true, "dtype": "float32", "filters": 16, "kernel_size": [3, 3], "strides": [4, 4], "padding": "same", "data_format": "channels_last", "dilation_rate": [1, 1], "groups": 1, "activation": "relu", "use_bias": true, "kernel_initializer": {"class_name": "GlorotUniform", "config": {"seed": null}}, "bias_initializer": {"class_name": "Zeros", "config": {}}, "kernel_regularizer": null, "bias_regularizer": null, "activity_regularizer": null, "kernel_constraint": null, "bias_constraint": null}, "name": "conv2d_77", "inbound_nodes": [[["conv2d_76", 0, 0, {}]]]}, {"class_name": "Conv2D", "config": {"name": "conv2d_81", "trainable": true, "dtype": "float32", "filters": 16, "kernel_size": [3, 3], "strides": [4, 4], "padding": "same", "data_format": "channels_last", "dilation_rate": [1, 1], "groups": 1, "activation": "relu", "use_bias": true, "kernel_initializer": {"class_name": "GlorotUniform", "config": {"seed": null}}, "bias_initializer": {"class_name": "Zeros", "config": {}}, "kernel_regularizer": null, "bias_regularizer": null, "activity_regularizer": null, "kernel_constraint": null, "bias_constraint": null}, "name": "conv2d_81", "inbound_nodes": [[["conv2d_80", 0, 0, {}]]]}, {"class_name": "Conv2D", "config": {"name": "conv2d_85", "trainable": true, "dtype": "float32", "filters": 16, "kernel_size": [3, 3], "strides": [4, 4], "padding": "same", "data_format": "channels_last", "dilation_rate": [1, 1], "groups": 1, "activation": "relu", "use_bias": true, "kernel_initializer": {"class_name": "GlorotUniform", "config": {"seed": null}}, "bias_initializer": {"class_name": "Zeros", "config": {}}, "kernel_regularizer": null, "bias_regularizer": null, "activity_regularizer": null, "kernel_constraint": null, "bias_constraint": null}, "name": "conv2d_85", "inbound_nodes": [[["conv2d_84", 0, 0, {}]]]}, {"class_name": "Conv2D", "config": {"name": "conv2d_89", "trainable": true, "dtype": "float32", "filters": 16, "kernel_size": [3, 3], "strides": [4, 4], "padding": "same", "data_format": "channels_last", "dilation_rate": [1, 1], "groups": 1, "activation": "relu", "use_bias": true, "kernel_initializer": {"class_name": "GlorotUniform", "config": {"seed": null}}, "bias_initializer": {"class_name": "Zeros", "config": {}}, "kernel_regularizer": null, "bias_regularizer": null, "activity_regularizer": null, "kernel_constraint": null, "bias_constraint": null}, "name": "conv2d_89", "inbound_nodes": [[["conv2d_88", 0, 0, {}]]]}, {"class_name": "Conv2D", "config": {"name": "conv2d_93", "trainable": true, "dtype": "float32", "filters": 16, "kernel_size": [3, 3], "strides": [4, 4], "padding": "same", "data_format": "channels_last", "dilation_rate": [1, 1], "groups": 1, "activation": "relu", "use_bias": true, "kernel_initializer": {"class_name": "GlorotUniform", "config": {"seed": null}}, "bias_initializer": {"class_name": "Zeros", "config": {}}, "kernel_regularizer": null, "bias_regularizer": null, "activity_regularizer": null, "kernel_constraint": null, "bias_constraint": null}, "name": "conv2d_93", "inbound_nodes": [[["conv2d_92", 0, 0, {}]]]}, {"class_name": "Conv2D", "config": {"name": "conv2d_97", "trainable": true, "dtype": "float32", "filters": 16, "kernel_size": [3, 3], "strides": [4, 4], "padding": "same", "data_format": "channels_last", "dilation_rate": [1, 1], "groups": 1, "activation": "relu", "use_bias": true, "kernel_initializer": {"class_name": "GlorotUniform", "config": {"seed": null}}, "bias_initializer": {"class_name": "Zeros", "config": {}}, "kernel_regularizer": null, "bias_regularizer": null, "activity_regularizer": null, "kernel_constraint": null, "bias_constraint": null}, "name": "conv2d_97", "inbound_nodes": [[["conv2d_96", 0, 0, {}]]]}, {"class_name": "Conv2D", "config": {"name": "conv2d_101", "trainable": true, "dtype": "float32", "filters": 16, "kernel_size": [3, 3], "strides": [4, 4], "padding": "same", "data_format": "channels_last", "dilation_rate": [1, 1], "groups": 1, "activation": "relu", "use_bias": true, "kernel_initializer": {"class_name": "GlorotUniform", "config": {"seed": null}}, "bias_initializer": {"class_name": "Zeros", "config": {}}, "kernel_regularizer": null, "bias_regularizer": null, "activity_regularizer": null, "kernel_constraint": null, "bias_constraint": null}, "name": "conv2d_101", "inbound_nodes": [[["conv2d_100", 0, 0, {}]]]}, {"class_name": "Conv2D", "config": {"name": "conv2d_105", "trainable": true, "dtype": "float32", "filters": 16, "kernel_size": [3, 3], "strides": [4, 4], "padding": "same", "data_format": "channels_last", "dilation_rate": [1, 1], "groups": 1, "activation": "relu", "use_bias": true, "kernel_initializer": {"class_name": "GlorotUniform", "config": {"seed": null}}, "bias_initializer": {"class_name": "Zeros", "config": {}}, "kernel_regularizer": null, "bias_regularizer": null, "activity_regularizer": null, "kernel_constraint": null, "bias_constraint": null}, "name": "conv2d_105", "inbound_nodes": [[["conv2d_104", 0, 0, {}]]]}, {"class_name": "Conv2D", "config": {"name": "conv2d_109", "trainable": true, "dtype": "float32", "filters": 16, "kernel_size": [3, 3], "strides": [4, 4], "padding": "same", "data_format": "channels_last", "dilation_rate": [1, 1], "groups": 1, "activation": "relu", "use_bias": true, "kernel_initializer": {"class_name": "GlorotUniform", "config": {"seed": null}}, "bias_initializer": {"class_name": "Zeros", "config": {}}, "kernel_regularizer": null, "bias_regularizer": null, "activity_regularizer": null, "kernel_constraint": null, "bias_constraint": null}, "name": "conv2d_109", "inbound_nodes": [[["conv2d_108", 0, 0, {}]]]}, {"class_name": "Conv2D", "config": {"name": "conv2d_113", "trainable": true, "dtype": "float32", "filters": 16, "kernel_size": [3, 3], "strides": [4, 4], "padding": "same", "data_format": "channels_last", "dilation_rate": [1, 1], "groups": 1, "activation": "relu", "use_bias": true, "kernel_initializer": {"class_name": "GlorotUniform", "config": {"seed": null}}, "bias_initializer": {"class_name": "Zeros", "config": {}}, "kernel_regularizer": null, "bias_regularizer": null, "activity_regularizer": null, "kernel_constraint": null, "bias_constraint": null}, "name": "conv2d_113", "inbound_nodes": [[["conv2d_112", 0, 0, {}]]]}, {"class_name": "Conv2D", "config": {"name": "conv2d_117", "trainable": true, "dtype": "float32", "filters": 16, "kernel_size": [3, 3], "strides": [4, 4], "padding": "same", "data_format": "channels_last", "dilation_rate": [1, 1], "groups": 1, "activation": "relu", "use_bias": true, "kernel_initializer": {"class_name": "GlorotUniform", "config": {"seed": null}}, "bias_initializer": {"class_name": "Zeros", "config": {}}, "kernel_regularizer": null, "bias_regularizer": null, "activity_regularizer": null, "kernel_constraint": null, "bias_constraint": null}, "name": "conv2d_117", "inbound_nodes": [[["conv2d_116", 0, 0, {}]]]}, {"class_name": "Conv2D", "config": {"name": "conv2d_121", "trainable": true, "dtype": "float32", "filters": 16, "kernel_size": [3, 3], "strides": [4, 4], "padding": "same", "data_format": "channels_last", "dilation_rate": [1, 1], "groups": 1, "activation": "relu", "use_bias": true, "kernel_initializer": {"class_name": "GlorotUniform", "config": {"seed": null}}, "bias_initializer": {"class_name": "Zeros", "config": {}}, "kernel_regularizer": null, "bias_regularizer": null, "activity_regularizer": null, "kernel_constraint": null, "bias_constraint": null}, "name": "conv2d_121", "inbound_nodes": [[["conv2d_120", 0, 0, {}]]]}, {"class_name": "Conv2D", "config": {"name": "conv2d_125", "trainable": true, "dtype": "float32", "filters": 16, "kernel_size": [3, 3], "strides": [4, 4], "padding": "same", "data_format": "channels_last", "dilation_rate": [1, 1], "groups": 1, "activation": "relu", "use_bias": true, "kernel_initializer": {"class_name": "GlorotUniform", "config": {"seed": null}}, "bias_initializer": {"class_name": "Zeros", "config": {}}, "kernel_regularizer": null, "bias_regularizer": null, "activity_regularizer": null, "kernel_constraint": null, "bias_constraint": null}, "name": "conv2d_125", "inbound_nodes": [[["conv2d_124", 0, 0, {}]]]}, {"class_name": "Conv2D", "config": {"name": "conv2d_2", "trainable": true, "dtype": "float32", "filters": 64, "kernel_size": [3, 3], "strides": [4, 4], "padding": "same", "data_format": "channels_last", "dilation_rate": [1, 1], "groups": 1, "activation": "relu", "use_bias": true, "kernel_initializer": {"class_name": "GlorotUniform", "config": {"seed": null}}, "bias_initializer": {"class_name": "Zeros", "config": {}}, "kernel_regularizer": null, "bias_regularizer": null, "activity_regularizer": null, "kernel_constraint": null, "bias_constraint": null}, "name": "conv2d_2", "inbound_nodes": [[["conv2d_1", 0, 0, {}]]]}, {"class_name": "Conv2D", "config": {"name": "conv2d_6", "trainable": true, "dtype": "float32", "filters": 64, "kernel_size": [3, 3], "strides": [4, 4], "padding": "same", "data_format": "channels_last", "dilation_rate": [1, 1], "groups": 1, "activation": "relu", "use_bias": true, "kernel_initializer": {"class_name": "GlorotUniform", "config": {"seed": null}}, "bias_initializer": {"class_name": "Zeros", "config": {}}, "kernel_regularizer": null, "bias_regularizer": null, "activity_regularizer": null, "kernel_constraint": null, "bias_constraint": null}, "name": "conv2d_6", "inbound_nodes": [[["conv2d_5", 0, 0, {}]]]}, {"class_name": "Conv2D", "config": {"name": "conv2d_10", "trainable": true, "dtype": "float32", "filters": 64, "kernel_size": [3, 3], "strides": [4, 4], "padding": "same", "data_format": "channels_last", "dilation_rate": [1, 1], "groups": 1, "activation": "relu", "use_bias": true, "kernel_initializer": {"class_name": "GlorotUniform", "config": {"seed": null}}, "bias_initializer": {"class_name": "Zeros", "config": {}}, "kernel_regularizer": null, "bias_regularizer": null, "activity_regularizer": null, "kernel_constraint": null, "bias_constraint": null}, "name": "conv2d_10", "inbound_nodes": [[["conv2d_9", 0, 0, {}]]]}, {"class_name": "Conv2D", "config": {"name": "conv2d_14", "trainable": true, "dtype": "float32", "filters": 64, "kernel_size": [3, 3], "strides": [4, 4], "padding": "same", "data_format": "channels_last", "dilation_rate": [1, 1], "groups": 1, "activation": "relu", "use_bias": true, "kernel_initializer": {"class_name": "GlorotUniform", "config": {"seed": null}}, "bias_initializer": {"class_name": "Zeros", "config": {}}, "kernel_regularizer": null, "bias_regularizer": null, "activity_regularizer": null, "kernel_constraint": null, "bias_constraint": null}, "name": "conv2d_14", "inbound_nodes": [[["conv2d_13", 0, 0, {}]]]}, {"class_name": "Conv2D", "config": {"name": "conv2d_18", "trainable": true, "dtype": "float32", "filters": 64, "kernel_size": [3, 3], "strides": [4, 4], "padding": "same", "data_format": "channels_last", "dilation_rate": [1, 1], "groups": 1, "activation": "relu", "use_bias": true, "kernel_initializer": {"class_name": "GlorotUniform", "config": {"seed": null}}, "bias_initializer": {"class_name": "Zeros", "config": {}}, "kernel_regularizer": null, "bias_regularizer": null, "activity_regularizer": null, "kernel_constraint": null, "bias_constraint": null}, "name": "conv2d_18", "inbound_nodes": [[["conv2d_17", 0, 0, {}]]]}, {"class_name": "Conv2D", "config": {"name": "conv2d_22", "trainable": true, "dtype": "float32", "filters": 64, "kernel_size": [3, 3], "strides": [4, 4], "padding": "same", "data_format": "channels_last", "dilation_rate": [1, 1], "groups": 1, "activation": "relu", "use_bias": true, "kernel_initializer": {"class_name": "GlorotUniform", "config": {"seed": null}}, "bias_initializer": {"class_name": "Zeros", "config": {}}, "kernel_regularizer": null, "bias_regularizer": null, "activity_regularizer": null, "kernel_constraint": null, "bias_constraint": null}, "name": "conv2d_22", "inbound_nodes": [[["conv2d_21", 0, 0, {}]]]}, {"class_name": "Conv2D", "config": {"name": "conv2d_26", "trainable": true, "dtype": "float32", "filters": 64, "kernel_size": [3, 3], "strides": [4, 4], "padding": "same", "data_format": "channels_last", "dilation_rate": [1, 1], "groups": 1, "activation": "relu", "use_bias": true, "kernel_initializer": {"class_name": "GlorotUniform", "config": {"seed": null}}, "bias_initializer": {"class_name": "Zeros", "config": {}}, "kernel_regularizer": null, "bias_regularizer": null, "activity_regularizer": null, "kernel_constraint": null, "bias_constraint": null}, "name": "conv2d_26", "inbound_nodes": [[["conv2d_25", 0, 0, {}]]]}, {"class_name": "Conv2D", "config": {"name": "conv2d_30", "trainable": true, "dtype": "float32", "filters": 64, "kernel_size": [3, 3], "strides": [4, 4], "padding": "same", "data_format": "channels_last", "dilation_rate": [1, 1], "groups": 1, "activation": "relu", "use_bias": true, "kernel_initializer": {"class_name": "GlorotUniform", "config": {"seed": null}}, "bias_initializer": {"class_name": "Zeros", "config": {}}, "kernel_regularizer": null, "bias_regularizer": null, "activity_regularizer": null, "kernel_constraint": null, "bias_constraint": null}, "name": "conv2d_30", "inbound_nodes": [[["conv2d_29", 0, 0, {}]]]}, {"class_name": "Conv2D", "config": {"name": "conv2d_34", "trainable": true, "dtype": "float32", "filters": 64, "kernel_size": [3, 3], "strides": [4, 4], "padding": "same", "data_format": "channels_last", "dilation_rate": [1, 1], "groups": 1, "activation": "relu", "use_bias": true, "kernel_initializer": {"class_name": "GlorotUniform", "config": {"seed": null}}, "bias_initializer": {"class_name": "Zeros", "config": {}}, "kernel_regularizer": null, "bias_regularizer": null, "activity_regularizer": null, "kernel_constraint": null, "bias_constraint": null}, "name": "conv2d_34", "inbound_nodes": [[["conv2d_33", 0, 0, {}]]]}, {"class_name": "Conv2D", "config": {"name": "conv2d_38", "trainable": true, "dtype": "float32", "filters": 64, "kernel_size": [3, 3], "strides": [4, 4], "padding": "same", "data_format": "channels_last", "dilation_rate": [1, 1], "groups": 1, "activation": "relu", "use_bias": true, "kernel_initializer": {"class_name": "GlorotUniform", "config": {"seed": null}}, "bias_initializer": {"class_name": "Zeros", "config": {}}, "kernel_regularizer": null, "bias_regularizer": null, "activity_regularizer": null, "kernel_constraint": null, "bias_constraint": null}, "name": "conv2d_38", "inbound_nodes": [[["conv2d_37", 0, 0, {}]]]}, {"class_name": "Conv2D", "config": {"name": "conv2d_42", "trainable": true, "dtype": "float32", "filters": 64, "kernel_size": [3, 3], "strides": [4, 4], "padding": "same", "data_format": "channels_last", "dilation_rate": [1, 1], "groups": 1, "activation": "relu", "use_bias": true, "kernel_initializer": {"class_name": "GlorotUniform", "config": {"seed": null}}, "bias_initializer": {"class_name": "Zeros", "config": {}}, "kernel_regularizer": null, "bias_regularizer": null, "activity_regularizer": null, "kernel_constraint": null, "bias_constraint": null}, "name": "conv2d_42", "inbound_nodes": [[["conv2d_41", 0, 0, {}]]]}, {"class_name": "Conv2D", "config": {"name": "conv2d_46", "trainable": true, "dtype": "float32", "filters": 64, "kernel_size": [3, 3], "strides": [4, 4], "padding": "same", "data_format": "channels_last", "dilation_rate": [1, 1], "groups": 1, "activation": "relu", "use_bias": true, "kernel_initializer": {"class_name": "GlorotUniform", "config": {"seed": null}}, "bias_initializer": {"class_name": "Zeros", "config": {}}, "kernel_regularizer": null, "bias_regularizer": null, "activity_regularizer": null, "kernel_constraint": null, "bias_constraint": null}, "name": "conv2d_46", "inbound_nodes": [[["conv2d_45", 0, 0, {}]]]}, {"class_name": "Conv2D", "config": {"name": "conv2d_50", "trainable": true, "dtype": "float32", "filters": 64, "kernel_size": [3, 3], "strides": [4, 4], "padding": "same", "data_format": "channels_last", "dilation_rate": [1, 1], "groups": 1, "activation": "relu", "use_bias": true, "kernel_initializer": {"class_name": "GlorotUniform", "config": {"seed": null}}, "bias_initializer": {"class_name": "Zeros", "config": {}}, "kernel_regularizer": null, "bias_regularizer": null, "activity_regularizer": null, "kernel_constraint": null, "bias_constraint": null}, "name": "conv2d_50", "inbound_nodes": [[["conv2d_49", 0, 0, {}]]]}, {"class_name": "Conv2D", "config": {"name": "conv2d_54", "trainable": true, "dtype": "float32", "filters": 64, "kernel_size": [3, 3], "strides": [4, 4], "padding": "same", "data_format": "channels_last", "dilation_rate": [1, 1], "groups": 1, "activation": "relu", "use_bias": true, "kernel_initializer": {"class_name": "GlorotUniform", "config": {"seed": null}}, "bias_initializer": {"class_name": "Zeros", "config": {}}, "kernel_regularizer": null, "bias_regularizer": null, "activity_regularizer": null, "kernel_constraint": null, "bias_constraint": null}, "name": "conv2d_54", "inbound_nodes": [[["conv2d_53", 0, 0, {}]]]}, {"class_name": "Conv2D", "config": {"name": "conv2d_58", "trainable": true, "dtype": "float32", "filters": 64, "kernel_size": [3, 3], "strides": [4, 4], "padding": "same", "data_format": "channels_last", "dilation_rate": [1, 1], "groups": 1, "activation": "relu", "use_bias": true, "kernel_initializer": {"class_name": "GlorotUniform", "config": {"seed": null}}, "bias_initializer": {"class_name": "Zeros", "config": {}}, "kernel_regularizer": null, "bias_regularizer": null, "activity_regularizer": null, "kernel_constraint": null, "bias_constraint": null}, "name": "conv2d_58", "inbound_nodes": [[["conv2d_57", 0, 0, {}]]]}, {"class_name": "Conv2D", "config": {"name": "conv2d_62", "trainable": true, "dtype": "float32", "filters": 64, "kernel_size": [3, 3], "strides": [4, 4], "padding": "same", "data_format": "channels_last", "dilation_rate": [1, 1], "groups": 1, "activation": "relu", "use_bias": true, "kernel_initializer": {"class_name": "GlorotUniform", "config": {"seed": null}}, "bias_initializer": {"class_name": "Zeros", "config": {}}, "kernel_regularizer": null, "bias_regularizer": null, "activity_regularizer": null, "kernel_constraint": null, "bias_constraint": null}, "name": "conv2d_62", "inbound_nodes": [[["conv2d_61", 0, 0, {}]]]}, {"class_name": "Conv2D", "config": {"name": "conv2d_66", "trainable": true, "dtype": "float32", "filters": 64, "kernel_size": [3, 3], "strides": [4, 4], "padding": "same", "data_format": "channels_last", "dilation_rate": [1, 1], "groups": 1, "activation": "relu", "use_bias": true, "kernel_initializer": {"class_name": "GlorotUniform", "config": {"seed": null}}, "bias_initializer": {"class_name": "Zeros", "config": {}}, "kernel_regularizer": null, "bias_regularizer": null, "activity_regularizer": null, "kernel_constraint": null, "bias_constraint": null}, "name": "conv2d_66", "inbound_nodes": [[["conv2d_65", 0, 0, {}]]]}, {"class_name": "Conv2D", "config": {"name": "conv2d_70", "trainable": true, "dtype": "float32", "filters": 64, "kernel_size": [3, 3], "strides": [4, 4], "padding": "same", "data_format": "channels_last", "dilation_rate": [1, 1], "groups": 1, "activation": "relu", "use_bias": true, "kernel_initializer": {"class_name": "GlorotUniform", "config": {"seed": null}}, "bias_initializer": {"class_name": "Zeros", "config": {}}, "kernel_regularizer": null, "bias_regularizer": null, "activity_regularizer": null, "kernel_constraint": null, "bias_constraint": null}, "name": "conv2d_70", "inbound_nodes": [[["conv2d_69", 0, 0, {}]]]}, {"class_name": "Conv2D", "config": {"name": "conv2d_74", "trainable": true, "dtype": "float32", "filters": 64, "kernel_size": [3, 3], "strides": [4, 4], "padding": "same", "data_format": "channels_last", "dilation_rate": [1, 1], "groups": 1, "activation": "relu", "use_bias": true, "kernel_initializer": {"class_name": "GlorotUniform", "config": {"seed": null}}, "bias_initializer": {"class_name": "Zeros", "config": {}}, "kernel_regularizer": null, "bias_regularizer": null, "activity_regularizer": null, "kernel_constraint": null, "bias_constraint": null}, "name": "conv2d_74", "inbound_nodes": [[["conv2d_73", 0, 0, {}]]]}, {"class_name": "Conv2D", "config": {"name": "conv2d_78", "trainable": true, "dtype": "float32", "filters": 64, "kernel_size": [3, 3], "strides": [4, 4], "padding": "same", "data_format": "channels_last", "dilation_rate": [1, 1], "groups": 1, "activation": "relu", "use_bias": true, "kernel_initializer": {"class_name": "GlorotUniform", "config": {"seed": null}}, "bias_initializer": {"class_name": "Zeros", "config": {}}, "kernel_regularizer": null, "bias_regularizer": null, "activity_regularizer": null, "kernel_constraint": null, "bias_constraint": null}, "name": "conv2d_78", "inbound_nodes": [[["conv2d_77", 0, 0, {}]]]}, {"class_name": "Conv2D", "config": {"name": "conv2d_82", "trainable": true, "dtype": "float32", "filters": 64, "kernel_size": [3, 3], "strides": [4, 4], "padding": "same", "data_format": "channels_last", "dilation_rate": [1, 1], "groups": 1, "activation": "relu", "use_bias": true, "kernel_initializer": {"class_name": "GlorotUniform", "config": {"seed": null}}, "bias_initializer": {"class_name": "Zeros", "config": {}}, "kernel_regularizer": null, "bias_regularizer": null, "activity_regularizer": null, "kernel_constraint": null, "bias_constraint": null}, "name": "conv2d_82", "inbound_nodes": [[["conv2d_81", 0, 0, {}]]]}, {"class_name": "Conv2D", "config": {"name": "conv2d_86", "trainable": true, "dtype": "float32", "filters": 64, "kernel_size": [3, 3], "strides": [4, 4], "padding": "same", "data_format": "channels_last", "dilation_rate": [1, 1], "groups": 1, "activation": "relu", "use_bias": true, "kernel_initializer": {"class_name": "GlorotUniform", "config": {"seed": null}}, "bias_initializer": {"class_name": "Zeros", "config": {}}, "kernel_regularizer": null, "bias_regularizer": null, "activity_regularizer": null, "kernel_constraint": null, "bias_constraint": null}, "name": "conv2d_86", "inbound_nodes": [[["conv2d_85", 0, 0, {}]]]}, {"class_name": "Conv2D", "config": {"name": "conv2d_90", "trainable": true, "dtype": "float32", "filters": 64, "kernel_size": [3, 3], "strides": [4, 4], "padding": "same", "data_format": "channels_last", "dilation_rate": [1, 1], "groups": 1, "activation": "relu", "use_bias": true, "kernel_initializer": {"class_name": "GlorotUniform", "config": {"seed": null}}, "bias_initializer": {"class_name": "Zeros", "config": {}}, "kernel_regularizer": null, "bias_regularizer": null, "activity_regularizer": null, "kernel_constraint": null, "bias_constraint": null}, "name": "conv2d_90", "inbound_nodes": [[["conv2d_89", 0, 0, {}]]]}, {"class_name": "Conv2D", "config": {"name": "conv2d_94", "trainable": true, "dtype": "float32", "filters": 64, "kernel_size": [3, 3], "strides": [4, 4], "padding": "same", "data_format": "channels_last", "dilation_rate": [1, 1], "groups": 1, "activation": "relu", "use_bias": true, "kernel_initializer": {"class_name": "GlorotUniform", "config": {"seed": null}}, "bias_initializer": {"class_name": "Zeros", "config": {}}, "kernel_regularizer": null, "bias_regularizer": null, "activity_regularizer": null, "kernel_constraint": null, "bias_constraint": null}, "name": "conv2d_94", "inbound_nodes": [[["conv2d_93", 0, 0, {}]]]}, {"class_name": "Conv2D", "config": {"name": "conv2d_98", "trainable": true, "dtype": "float32", "filters": 64, "kernel_size": [3, 3], "strides": [4, 4], "padding": "same", "data_format": "channels_last", "dilation_rate": [1, 1], "groups": 1, "activation": "relu", "use_bias": true, "kernel_initializer": {"class_name": "GlorotUniform", "config": {"seed": null}}, "bias_initializer": {"class_name": "Zeros", "config": {}}, "kernel_regularizer": null, "bias_regularizer": null, "activity_regularizer": null, "kernel_constraint": null, "bias_constraint": null}, "name": "conv2d_98", "inbound_nodes": [[["conv2d_97", 0, 0, {}]]]}, {"class_name": "Conv2D", "config": {"name": "conv2d_102", "trainable": true, "dtype": "float32", "filters": 64, "kernel_size": [3, 3], "strides": [4, 4], "padding": "same", "data_format": "channels_last", "dilation_rate": [1, 1], "groups": 1, "activation": "relu", "use_bias": true, "kernel_initializer": {"class_name": "GlorotUniform", "config": {"seed": null}}, "bias_initializer": {"class_name": "Zeros", "config": {}}, "kernel_regularizer": null, "bias_regularizer": null, "activity_regularizer": null, "kernel_constraint": null, "bias_constraint": null}, "name": "conv2d_102", "inbound_nodes": [[["conv2d_101", 0, 0, {}]]]}, {"class_name": "Conv2D", "config": {"name": "conv2d_106", "trainable": true, "dtype": "float32", "filters": 64, "kernel_size": [3, 3], "strides": [4, 4], "padding": "same", "data_format": "channels_last", "dilation_rate": [1, 1], "groups": 1, "activation": "relu", "use_bias": true, "kernel_initializer": {"class_name": "GlorotUniform", "config": {"seed": null}}, "bias_initializer": {"class_name": "Zeros", "config": {}}, "kernel_regularizer": null, "bias_regularizer": null, "activity_regularizer": null, "kernel_constraint": null, "bias_constraint": null}, "name": "conv2d_106", "inbound_nodes": [[["conv2d_105", 0, 0, {}]]]}, {"class_name": "Conv2D", "config": {"name": "conv2d_110", "trainable": true, "dtype": "float32", "filters": 64, "kernel_size": [3, 3], "strides": [4, 4], "padding": "same", "data_format": "channels_last", "dilation_rate": [1, 1], "groups": 1, "activation": "relu", "use_bias": true, "kernel_initializer": {"class_name": "GlorotUniform", "config": {"seed": null}}, "bias_initializer": {"class_name": "Zeros", "config": {}}, "kernel_regularizer": null, "bias_regularizer": null, "activity_regularizer": null, "kernel_constraint": null, "bias_constraint": null}, "name": "conv2d_110", "inbound_nodes": [[["conv2d_109", 0, 0, {}]]]}, {"class_name": "Conv2D", "config": {"name": "conv2d_114", "trainable": true, "dtype": "float32", "filters": 64, "kernel_size": [3, 3], "strides": [4, 4], "padding": "same", "data_format": "channels_last", "dilation_rate": [1, 1], "groups": 1, "activation": "relu", "use_bias": true, "kernel_initializer": {"class_name": "GlorotUniform", "config": {"seed": null}}, "bias_initializer": {"class_name": "Zeros", "config": {}}, "kernel_regularizer": null, "bias_regularizer": null, "activity_regularizer": null, "kernel_constraint": null, "bias_constraint": null}, "name": "conv2d_114", "inbound_nodes": [[["conv2d_113", 0, 0, {}]]]}, {"class_name": "Conv2D", "config": {"name": "conv2d_118", "trainable": true, "dtype": "float32", "filters": 64, "kernel_size": [3, 3], "strides": [4, 4], "padding": "same", "data_format": "channels_last", "dilation_rate": [1, 1], "groups": 1, "activation": "relu", "use_bias": true, "kernel_initializer": {"class_name": "GlorotUniform", "config": {"seed": null}}, "bias_initializer": {"class_name": "Zeros", "config": {}}, "kernel_regularizer": null, "bias_regularizer": null, "activity_regularizer": null, "kernel_constraint": null, "bias_constraint": null}, "name": "conv2d_118", "inbound_nodes": [[["conv2d_117", 0, 0, {}]]]}, {"class_name": "Conv2D", "config": {"name": "conv2d_122", "trainable": true, "dtype": "float32", "filters": 64, "kernel_size": [3, 3], "strides": [4, 4], "padding": "same", "data_format": "channels_last", "dilation_rate": [1, 1], "groups": 1, "activation": "relu", "use_bias": true, "kernel_initializer": {"class_name": "GlorotUniform", "config": {"seed": null}}, "bias_initializer": {"class_name": "Zeros", "config": {}}, "kernel_regularizer": null, "bias_regularizer": null, "activity_regularizer": null, "kernel_constraint": null, "bias_constraint": null}, "name": "conv2d_122", "inbound_nodes": [[["conv2d_121", 0, 0, {}]]]}, {"class_name": "Conv2D", "config": {"name": "conv2d_126", "trainable": true, "dtype": "float32", "filters": 64, "kernel_size": [3, 3], "strides": [4, 4], "padding": "same", "data_format": "channels_last", "dilation_rate": [1, 1], "groups": 1, "activation": "relu", "use_bias": true, "kernel_initializer": {"class_name": "GlorotUniform", "config": {"seed": null}}, "bias_initializer": {"class_name": "Zeros", "config": {}}, "kernel_regularizer": null, "bias_regularizer": null, "activity_regularizer": null, "kernel_constraint": null, "bias_constraint": null}, "name": "conv2d_126", "inbound_nodes": [[["conv2d_125", 0, 0, {}]]]}, {"class_name": "Conv2D", "config": {"name": "conv2d_3", "trainable": true, "dtype": "float32", "filters": 128, "kernel_size": [3, 3], "strides": [2, 2], "padding": "same", "data_format": "channels_last", "dilation_rate": [1, 1], "groups": 1, "activation": "relu", "use_bias": true, "kernel_initializer": {"class_name": "GlorotUniform", "config": {"seed": null}}, "bias_initializer": {"class_name": "Zeros", "config": {}}, "kernel_regularizer": null, "bias_regularizer": null, "activity_regularizer": null, "kernel_constraint": null, "bias_constraint": null}, "name": "conv2d_3", "inbound_nodes": [[["conv2d_2", 0, 0, {}]]]}, {"class_name": "Conv2D", "config": {"name": "conv2d_7", "trainable": true, "dtype": "float32", "filters": 128, "kernel_size": [3, 3], "strides": [2, 2], "padding": "same", "data_format": "channels_last", "dilation_rate": [1, 1], "groups": 1, "activation": "relu", "use_bias": true, "kernel_initializer": {"class_name": "GlorotUniform", "config": {"seed": null}}, "bias_initializer": {"class_name": "Zeros", "config": {}}, "kernel_regularizer": null, "bias_regularizer": null, "activity_regularizer": null, "kernel_constraint": null, "bias_constraint": null}, "name": "conv2d_7", "inbound_nodes": [[["conv2d_6", 0, 0, {}]]]}, {"class_name": "Conv2D", "config": {"name": "conv2d_11", "trainable": true, "dtype": "float32", "filters": 128, "kernel_size": [3, 3], "strides": [2, 2], "padding": "same", "data_format": "channels_last", "dilation_rate": [1, 1], "groups": 1, "activation": "relu", "use_bias": true, "kernel_initializer": {"class_name": "GlorotUniform", "config": {"seed": null}}, "bias_initializer": {"class_name": "Zeros", "config": {}}, "kernel_regularizer": null, "bias_regularizer": null, "activity_regularizer": null, "kernel_constraint": null, "bias_constraint": null}, "name": "conv2d_11", "inbound_nodes": [[["conv2d_10", 0, 0, {}]]]}, {"class_name": "Conv2D", "config": {"name": "conv2d_15", "trainable": true, "dtype": "float32", "filters": 128, "kernel_size": [3, 3], "strides": [2, 2], "padding": "same", "data_format": "channels_last", "dilation_rate": [1, 1], "groups": 1, "activation": "relu", "use_bias": true, "kernel_initializer": {"class_name": "GlorotUniform", "config": {"seed": null}}, "bias_initializer": {"class_name": "Zeros", "config": {}}, "kernel_regularizer": null, "bias_regularizer": null, "activity_regularizer": null, "kernel_constraint": null, "bias_constraint": null}, "name": "conv2d_15", "inbound_nodes": [[["conv2d_14", 0, 0, {}]]]}, {"class_name": "Conv2D", "config": {"name": "conv2d_19", "trainable": true, "dtype": "float32", "filters": 128, "kernel_size": [3, 3], "strides": [2, 2], "padding": "same", "data_format": "channels_last", "dilation_rate": [1, 1], "groups": 1, "activation": "relu", "use_bias": true, "kernel_initializer": {"class_name": "GlorotUniform", "config": {"seed": null}}, "bias_initializer": {"class_name": "Zeros", "config": {}}, "kernel_regularizer": null, "bias_regularizer": null, "activity_regularizer": null, "kernel_constraint": null, "bias_constraint": null}, "name": "conv2d_19", "inbound_nodes": [[["conv2d_18", 0, 0, {}]]]}, {"class_name": "Conv2D", "config": {"name": "conv2d_23", "trainable": true, "dtype": "float32", "filters": 128, "kernel_size": [3, 3], "strides": [2, 2], "padding": "same", "data_format": "channels_last", "dilation_rate": [1, 1], "groups": 1, "activation": "relu", "use_bias": true, "kernel_initializer": {"class_name": "GlorotUniform", "config": {"seed": null}}, "bias_initializer": {"class_name": "Zeros", "config": {}}, "kernel_regularizer": null, "bias_regularizer": null, "activity_regularizer": null, "kernel_constraint": null, "bias_constraint": null}, "name": "conv2d_23", "inbound_nodes": [[["conv2d_22", 0, 0, {}]]]}, {"class_name": "Conv2D", "config": {"name": "conv2d_27", "trainable": true, "dtype": "float32", "filters": 128, "kernel_size": [3, 3], "strides": [2, 2], "padding": "same", "data_format": "channels_last", "dilation_rate": [1, 1], "groups": 1, "activation": "relu", "use_bias": true, "kernel_initializer": {"class_name": "GlorotUniform", "config": {"seed": null}}, "bias_initializer": {"class_name": "Zeros", "config": {}}, "kernel_regularizer": null, "bias_regularizer": null, "activity_regularizer": null, "kernel_constraint": null, "bias_constraint": null}, "name": "conv2d_27", "inbound_nodes": [[["conv2d_26", 0, 0, {}]]]}, {"class_name": "Conv2D", "config": {"name": "conv2d_31", "trainable": true, "dtype": "float32", "filters": 128, "kernel_size": [3, 3], "strides": [2, 2], "padding": "same", "data_format": "channels_last", "dilation_rate": [1, 1], "groups": 1, "activation": "relu", "use_bias": true, "kernel_initializer": {"class_name": "GlorotUniform", "config": {"seed": null}}, "bias_initializer": {"class_name": "Zeros", "config": {}}, "kernel_regularizer": null, "bias_regularizer": null, "activity_regularizer": null, "kernel_constraint": null, "bias_constraint": null}, "name": "conv2d_31", "inbound_nodes": [[["conv2d_30", 0, 0, {}]]]}, {"class_name": "Conv2D", "config": {"name": "conv2d_35", "trainable": true, "dtype": "float32", "filters": 128, "kernel_size": [3, 3], "strides": [2, 2], "padding": "same", "data_format": "channels_last", "dilation_rate": [1, 1], "groups": 1, "activation": "relu", "use_bias": true, "kernel_initializer": {"class_name": "GlorotUniform", "config": {"seed": null}}, "bias_initializer": {"class_name": "Zeros", "config": {}}, "kernel_regularizer": null, "bias_regularizer": null, "activity_regularizer": null, "kernel_constraint": null, "bias_constraint": null}, "name": "conv2d_35", "inbound_nodes": [[["conv2d_34", 0, 0, {}]]]}, {"class_name": "Conv2D", "config": {"name": "conv2d_39", "trainable": true, "dtype": "float32", "filters": 128, "kernel_size": [3, 3], "strides": [2, 2], "padding": "same", "data_format": "channels_last", "dilation_rate": [1, 1], "groups": 1, "activation": "relu", "use_bias": true, "kernel_initializer": {"class_name": "GlorotUniform", "config": {"seed": null}}, "bias_initializer": {"class_name": "Zeros", "config": {}}, "kernel_regularizer": null, "bias_regularizer": null, "activity_regularizer": null, "kernel_constraint": null, "bias_constraint": null}, "name": "conv2d_39", "inbound_nodes": [[["conv2d_38", 0, 0, {}]]]}, {"class_name": "Conv2D", "config": {"name": "conv2d_43", "trainable": true, "dtype": "float32", "filters": 128, "kernel_size": [3, 3], "strides": [2, 2], "padding": "same", "data_format": "channels_last", "dilation_rate": [1, 1], "groups": 1, "activation": "relu", "use_bias": true, "kernel_initializer": {"class_name": "GlorotUniform", "config": {"seed": null}}, "bias_initializer": {"class_name": "Zeros", "config": {}}, "kernel_regularizer": null, "bias_regularizer": null, "activity_regularizer": null, "kernel_constraint": null, "bias_constraint": null}, "name": "conv2d_43", "inbound_nodes": [[["conv2d_42", 0, 0, {}]]]}, {"class_name": "Conv2D", "config": {"name": "conv2d_47", "trainable": true, "dtype": "float32", "filters": 128, "kernel_size": [3, 3], "strides": [2, 2], "padding": "same", "data_format": "channels_last", "dilation_rate": [1, 1], "groups": 1, "activation": "relu", "use_bias": true, "kernel_initializer": {"class_name": "GlorotUniform", "config": {"seed": null}}, "bias_initializer": {"class_name": "Zeros", "config": {}}, "kernel_regularizer": null, "bias_regularizer": null, "activity_regularizer": null, "kernel_constraint": null, "bias_constraint": null}, "name": "conv2d_47", "inbound_nodes": [[["conv2d_46", 0, 0, {}]]]}, {"class_name": "Conv2D", "config": {"name": "conv2d_51", "trainable": true, "dtype": "float32", "filters": 128, "kernel_size": [3, 3], "strides": [2, 2], "padding": "same", "data_format": "channels_last", "dilation_rate": [1, 1], "groups": 1, "activation": "relu", "use_bias": true, "kernel_initializer": {"class_name": "GlorotUniform", "config": {"seed": null}}, "bias_initializer": {"class_name": "Zeros", "config": {}}, "kernel_regularizer": null, "bias_regularizer": null, "activity_regularizer": null, "kernel_constraint": null, "bias_constraint": null}, "name": "conv2d_51", "inbound_nodes": [[["conv2d_50", 0, 0, {}]]]}, {"class_name": "Conv2D", "config": {"name": "conv2d_55", "trainable": true, "dtype": "float32", "filters": 128, "kernel_size": [3, 3], "strides": [2, 2], "padding": "same", "data_format": "channels_last", "dilation_rate": [1, 1], "groups": 1, "activation": "relu", "use_bias": true, "kernel_initializer": {"class_name": "GlorotUniform", "config": {"seed": null}}, "bias_initializer": {"class_name": "Zeros", "config": {}}, "kernel_regularizer": null, "bias_regularizer": null, "activity_regularizer": null, "kernel_constraint": null, "bias_constraint": null}, "name": "conv2d_55", "inbound_nodes": [[["conv2d_54", 0, 0, {}]]]}, {"class_name": "Conv2D", "config": {"name": "conv2d_59", "trainable": true, "dtype": "float32", "filters": 128, "kernel_size": [3, 3], "strides": [2, 2], "padding": "same", "data_format": "channels_last", "dilation_rate": [1, 1], "groups": 1, "activation": "relu", "use_bias": true, "kernel_initializer": {"class_name": "GlorotUniform", "config": {"seed": null}}, "bias_initializer": {"class_name": "Zeros", "config": {}}, "kernel_regularizer": null, "bias_regularizer": null, "activity_regularizer": null, "kernel_constraint": null, "bias_constraint": null}, "name": "conv2d_59", "inbound_nodes": [[["conv2d_58", 0, 0, {}]]]}, {"class_name": "Conv2D", "config": {"name": "conv2d_63", "trainable": true, "dtype": "float32", "filters": 128, "kernel_size": [3, 3], "strides": [2, 2], "padding": "same", "data_format": "channels_last", "dilation_rate": [1, 1], "groups": 1, "activation": "relu", "use_bias": true, "kernel_initializer": {"class_name": "GlorotUniform", "config": {"seed": null}}, "bias_initializer": {"class_name": "Zeros", "config": {}}, "kernel_regularizer": null, "bias_regularizer": null, "activity_regularizer": null, "kernel_constraint": null, "bias_constraint": null}, "name": "conv2d_63", "inbound_nodes": [[["conv2d_62", 0, 0, {}]]]}, {"class_name": "Conv2D", "config": {"name": "conv2d_67", "trainable": true, "dtype": "float32", "filters": 128, "kernel_size": [3, 3], "strides": [2, 2], "padding": "same", "data_format": "channels_last", "dilation_rate": [1, 1], "groups": 1, "activation": "relu", "use_bias": true, "kernel_initializer": {"class_name": "GlorotUniform", "config": {"seed": null}}, "bias_initializer": {"class_name": "Zeros", "config": {}}, "kernel_regularizer": null, "bias_regularizer": null, "activity_regularizer": null, "kernel_constraint": null, "bias_constraint": null}, "name": "conv2d_67", "inbound_nodes": [[["conv2d_66", 0, 0, {}]]]}, {"class_name": "Conv2D", "config": {"name": "conv2d_71", "trainable": true, "dtype": "float32", "filters": 128, "kernel_size": [3, 3], "strides": [2, 2], "padding": "same", "data_format": "channels_last", "dilation_rate": [1, 1], "groups": 1, "activation": "relu", "use_bias": true, "kernel_initializer": {"class_name": "GlorotUniform", "config": {"seed": null}}, "bias_initializer": {"class_name": "Zeros", "config": {}}, "kernel_regularizer": null, "bias_regularizer": null, "activity_regularizer": null, "kernel_constraint": null, "bias_constraint": null}, "name": "conv2d_71", "inbound_nodes": [[["conv2d_70", 0, 0, {}]]]}, {"class_name": "Conv2D", "config": {"name": "conv2d_75", "trainable": true, "dtype": "float32", "filters": 128, "kernel_size": [3, 3], "strides": [2, 2], "padding": "same", "data_format": "channels_last", "dilation_rate": [1, 1], "groups": 1, "activation": "relu", "use_bias": true, "kernel_initializer": {"class_name": "GlorotUniform", "config": {"seed": null}}, "bias_initializer": {"class_name": "Zeros", "config": {}}, "kernel_regularizer": null, "bias_regularizer": null, "activity_regularizer": null, "kernel_constraint": null, "bias_constraint": null}, "name": "conv2d_75", "inbound_nodes": [[["conv2d_74", 0, 0, {}]]]}, {"class_name": "Conv2D", "config": {"name": "conv2d_79", "trainable": true, "dtype": "float32", "filters": 128, "kernel_size": [3, 3], "strides": [2, 2], "padding": "same", "data_format": "channels_last", "dilation_rate": [1, 1], "groups": 1, "activation": "relu", "use_bias": true, "kernel_initializer": {"class_name": "GlorotUniform", "config": {"seed": null}}, "bias_initializer": {"class_name": "Zeros", "config": {}}, "kernel_regularizer": null, "bias_regularizer": null, "activity_regularizer": null, "kernel_constraint": null, "bias_constraint": null}, "name": "conv2d_79", "inbound_nodes": [[["conv2d_78", 0, 0, {}]]]}, {"class_name": "Conv2D", "config": {"name": "conv2d_83", "trainable": true, "dtype": "float32", "filters": 128, "kernel_size": [3, 3], "strides": [2, 2], "padding": "same", "data_format": "channels_last", "dilation_rate": [1, 1], "groups": 1, "activation": "relu", "use_bias": true, "kernel_initializer": {"class_name": "GlorotUniform", "config": {"seed": null}}, "bias_initializer": {"class_name": "Zeros", "config": {}}, "kernel_regularizer": null, "bias_regularizer": null, "activity_regularizer": null, "kernel_constraint": null, "bias_constraint": null}, "name": "conv2d_83", "inbound_nodes": [[["conv2d_82", 0, 0, {}]]]}, {"class_name": "Conv2D", "config": {"name": "conv2d_87", "trainable": true, "dtype": "float32", "filters": 128, "kernel_size": [3, 3], "strides": [2, 2], "padding": "same", "data_format": "channels_last", "dilation_rate": [1, 1], "groups": 1, "activation": "relu", "use_bias": true, "kernel_initializer": {"class_name": "GlorotUniform", "config": {"seed": null}}, "bias_initializer": {"class_name": "Zeros", "config": {}}, "kernel_regularizer": null, "bias_regularizer": null, "activity_regularizer": null, "kernel_constraint": null, "bias_constraint": null}, "name": "conv2d_87", "inbound_nodes": [[["conv2d_86", 0, 0, {}]]]}, {"class_name": "Conv2D", "config": {"name": "conv2d_91", "trainable": true, "dtype": "float32", "filters": 128, "kernel_size": [3, 3], "strides": [2, 2], "padding": "same", "data_format": "channels_last", "dilation_rate": [1, 1], "groups": 1, "activation": "relu", "use_bias": true, "kernel_initializer": {"class_name": "GlorotUniform", "config": {"seed": null}}, "bias_initializer": {"class_name": "Zeros", "config": {}}, "kernel_regularizer": null, "bias_regularizer": null, "activity_regularizer": null, "kernel_constraint": null, "bias_constraint": null}, "name": "conv2d_91", "inbound_nodes": [[["conv2d_90", 0, 0, {}]]]}, {"class_name": "Conv2D", "config": {"name": "conv2d_95", "trainable": true, "dtype": "float32", "filters": 128, "kernel_size": [3, 3], "strides": [2, 2], "padding": "same", "data_format": "channels_last", "dilation_rate": [1, 1], "groups": 1, "activation": "relu", "use_bias": true, "kernel_initializer": {"class_name": "GlorotUniform", "config": {"seed": null}}, "bias_initializer": {"class_name": "Zeros", "config": {}}, "kernel_regularizer": null, "bias_regularizer": null, "activity_regularizer": null, "kernel_constraint": null, "bias_constraint": null}, "name": "conv2d_95", "inbound_nodes": [[["conv2d_94", 0, 0, {}]]]}, {"class_name": "Conv2D", "config": {"name": "conv2d_99", "trainable": true, "dtype": "float32", "filters": 128, "kernel_size": [3, 3], "strides": [2, 2], "padding": "same", "data_format": "channels_last", "dilation_rate": [1, 1], "groups": 1, "activation": "relu", "use_bias": true, "kernel_initializer": {"class_name": "GlorotUniform", "config": {"seed": null}}, "bias_initializer": {"class_name": "Zeros", "config": {}}, "kernel_regularizer": null, "bias_regularizer": null, "activity_regularizer": null, "kernel_constraint": null, "bias_constraint": null}, "name": "conv2d_99", "inbound_nodes": [[["conv2d_98", 0, 0, {}]]]}, {"class_name": "Conv2D", "config": {"name": "conv2d_103", "trainable": true, "dtype": "float32", "filters": 128, "kernel_size": [3, 3], "strides": [2, 2], "padding": "same", "data_format": "channels_last", "dilation_rate": [1, 1], "groups": 1, "activation": "relu", "use_bias": true, "kernel_initializer": {"class_name": "GlorotUniform", "config": {"seed": null}}, "bias_initializer": {"class_name": "Zeros", "config": {}}, "kernel_regularizer": null, "bias_regularizer": null, "activity_regularizer": null, "kernel_constraint": null, "bias_constraint": null}, "name": "conv2d_103", "inbound_nodes": [[["conv2d_102", 0, 0, {}]]]}, {"class_name": "Conv2D", "config": {"name": "conv2d_107", "trainable": true, "dtype": "float32", "filters": 128, "kernel_size": [3, 3], "strides": [2, 2], "padding": "same", "data_format": "channels_last", "dilation_rate": [1, 1], "groups": 1, "activation": "relu", "use_bias": true, "kernel_initializer": {"class_name": "GlorotUniform", "config": {"seed": null}}, "bias_initializer": {"class_name": "Zeros", "config": {}}, "kernel_regularizer": null, "bias_regularizer": null, "activity_regularizer": null, "kernel_constraint": null, "bias_constraint": null}, "name": "conv2d_107", "inbound_nodes": [[["conv2d_106", 0, 0, {}]]]}, {"class_name": "Conv2D", "config": {"name": "conv2d_111", "trainable": true, "dtype": "float32", "filters": 128, "kernel_size": [3, 3], "strides": [2, 2], "padding": "same", "data_format": "channels_last", "dilation_rate": [1, 1], "groups": 1, "activation": "relu", "use_bias": true, "kernel_initializer": {"class_name": "GlorotUniform", "config": {"seed": null}}, "bias_initializer": {"class_name": "Zeros", "config": {}}, "kernel_regularizer": null, "bias_regularizer": null, "activity_regularizer": null, "kernel_constraint": null, "bias_constraint": null}, "name": "conv2d_111", "inbound_nodes": [[["conv2d_110", 0, 0, {}]]]}, {"class_name": "Conv2D", "config": {"name": "conv2d_115", "trainable": true, "dtype": "float32", "filters": 128, "kernel_size": [3, 3], "strides": [2, 2], "padding": "same", "data_format": "channels_last", "dilation_rate": [1, 1], "groups": 1, "activation": "relu", "use_bias": true, "kernel_initializer": {"class_name": "GlorotUniform", "config": {"seed": null}}, "bias_initializer": {"class_name": "Zeros", "config": {}}, "kernel_regularizer": null, "bias_regularizer": null, "activity_regularizer": null, "kernel_constraint": null, "bias_constraint": null}, "name": "conv2d_115", "inbound_nodes": [[["conv2d_114", 0, 0, {}]]]}, {"class_name": "Conv2D", "config": {"name": "conv2d_119", "trainable": true, "dtype": "float32", "filters": 128, "kernel_size": [3, 3], "strides": [2, 2], "padding": "same", "data_format": "channels_last", "dilation_rate": [1, 1], "groups": 1, "activation": "relu", "use_bias": true, "kernel_initializer": {"class_name": "GlorotUniform", "config": {"seed": null}}, "bias_initializer": {"class_name": "Zeros", "config": {}}, "kernel_regularizer": null, "bias_regularizer": null, "activity_regularizer": null, "kernel_constraint": null, "bias_constraint": null}, "name": "conv2d_119", "inbound_nodes": [[["conv2d_118", 0, 0, {}]]]}, {"class_name": "Conv2D", "config": {"name": "conv2d_123", "trainable": true, "dtype": "float32", "filters": 128, "kernel_size": [3, 3], "strides": [2, 2], "padding": "same", "data_format": "channels_last", "dilation_rate": [1, 1], "groups": 1, "activation": "relu", "use_bias": true, "kernel_initializer": {"class_name": "GlorotUniform", "config": {"seed": null}}, "bias_initializer": {"class_name": "Zeros", "config": {}}, "kernel_regularizer": null, "bias_regularizer": null, "activity_regularizer": null, "kernel_constraint": null, "bias_constraint": null}, "name": "conv2d_123", "inbound_nodes": [[["conv2d_122", 0, 0, {}]]]}, {"class_name": "Conv2D", "config": {"name": "conv2d_127", "trainable": true, "dtype": "float32", "filters": 128, "kernel_size": [3, 3], "strides": [2, 2], "padding": "same", "data_format": "channels_last", "dilation_rate": [1, 1], "groups": 1, "activation": "relu", "use_bias": true, "kernel_initializer": {"class_name": "GlorotUniform", "config": {"seed": null}}, "bias_initializer": {"class_name": "Zeros", "config": {}}, "kernel_regularizer": null, "bias_regularizer": null, "activity_regularizer": null, "kernel_constraint": null, "bias_constraint": null}, "name": "conv2d_127", "inbound_nodes": [[["conv2d_126", 0, 0, {}]]]}, {"class_name": "Concatenate", "config": {"name": "concatenate", "trainable": true, "dtype": "float32", "axis": -1}, "name": "concatenate", "inbound_nodes": [[["conv2d_3", 0, 0, {}], ["conv2d_7", 0, 0, {}], ["conv2d_11", 0, 0, {}], ["conv2d_15", 0, 0, {}], ["conv2d_19", 0, 0, {}], ["conv2d_23", 0, 0, {}], ["conv2d_27", 0, 0, {}], ["conv2d_31", 0, 0, {}], ["conv2d_35", 0, 0, {}], ["conv2d_39", 0, 0, {}], ["conv2d_43", 0, 0, {}], ["conv2d_47", 0, 0, {}], ["conv2d_51", 0, 0, {}], ["conv2d_55", 0, 0, {}], ["conv2d_59", 0, 0, {}], ["conv2d_63", 0, 0, {}], ["conv2d_67", 0, 0, {}], ["conv2d_71", 0, 0, {}], ["conv2d_75", 0, 0, {}], ["conv2d_79", 0, 0, {}], ["conv2d_83", 0, 0, {}], ["conv2d_87", 0, 0, {}], ["conv2d_91", 0, 0, {}], ["conv2d_95", 0, 0, {}], ["conv2d_99", 0, 0, {}], ["conv2d_103", 0, 0, {}], ["conv2d_107", 0, 0, {}], ["conv2d_111", 0, 0, {}], ["conv2d_115", 0, 0, {}], ["conv2d_119", 0, 0, {}], ["conv2d_123", 0, 0, {}], ["conv2d_127", 0, 0, {}]]]}, {"class_name": "Flatten", "config": {"name": "flatten", "trainable": true, "dtype": "float32", "data_format": "channels_last"}, "name": "flatten", "inbound_nodes": [[["concatenate", 0, 0, {}]]]}, {"class_name": "Dense", "config": {"name": "dense", "trainable": true, "dtype": "float32", "units": 512, "activation": "linear", "use_bias": true, "kernel_initializer": {"class_name": "GlorotUniform", "config": {"seed": null}}, "bias_initializer": {"class_name": "Zeros", "config": {}}, "kernel_regularizer": null, "bias_regularizer": null, "activity_regularizer": null, "kernel_constraint": null, "bias_constraint": null}, "name": "dense", "inbound_nodes": [[["flatten", 0, 0, {}]]]}, {"class_name": "Dropout", "config": {"name": "dropout", "trainable": true, "dtype": "float32", "rate": 0.2, "noise_shape": null, "seed": null}, "name": "dropout", "inbound_nodes": [[["dense", 0, 0, {}]]]}, {"class_name": "Dense", "config": {"name": "dense_1", "trainable": true, "dtype": "float32", "units": 128, "activation": "linear", "use_bias": true, "kernel_initializer": {"class_name": "GlorotUniform", "config": {"seed": null}}, "bias_initializer": {"class_name": "Zeros", "config": {}}, "kernel_regularizer": null, "bias_regularizer": null, "activity_regularizer": null, "kernel_constraint": null, "bias_constraint": null}, "name": "dense_1", "inbound_nodes": [[["dropout", 0, 0, {}]]]}, {"class_name": "Dropout", "config": {"name": "dropout_1", "trainable": true, "dtype": "float32", "rate": 0.2, "noise_shape": null, "seed": null}, "name": "dropout_1", "inbound_nodes": [[["dense_1", 0, 0, {}]]]}, {"class_name": "Dense", "config": {"name": "dense_2", "trainable": true, "dtype": "float32", "units": 32, "activation": "linear", "use_bias": true, "kernel_initializer": {"class_name": "GlorotUniform", "config": {"seed": null}}, "bias_initializer": {"class_name": "Zeros", "config": {}}, "kernel_regularizer": null, "bias_regularizer": null, "activity_regularizer": null, "kernel_constraint": null, "bias_constraint": null}, "name": "dense_2", "inbound_nodes": [[["dropout_1", 0, 0, {}]]]}, {"class_name": "Dropout", "config": {"name": "dropout_2", "trainable": true, "dtype": "float32", "rate": 0.2, "noise_shape": null, "seed": null}, "name": "dropout_2", "inbound_nodes": [[["dense_2", 0, 0, {}]]]}, {"class_name": "Dense", "config": {"name": "dense_3", "trainable": true, "dtype": "float32", "units": 1, "activation": "linear", "use_bias": true, "kernel_initializer": {"class_name": "GlorotUniform", "config": {"seed": null}}, "bias_initializer": {"class_name": "Zeros", "config": {}}, "kernel_regularizer": null, "bias_regularizer": null, "activity_regularizer": null, "kernel_constraint": null, "bias_constraint": null}, "name": "dense_3", "inbound_nodes": [[["dropout_2", 0, 0, {}]]]}], "input_layers": [["input_1", 0, 0]], "output_layers": [["dense_3", 0, 0]]}, "keras_version": "2.10.0", "backend": "tensorflow"}